…
WARNING:tensorflow:No training configuration found in the save file, so the model was *not* compiled. Compile it manually.
Model: "functional_1"
__________________________________________________________________________________________________
Layer (type)                    Output Shape         Param #     Connected to                     
==================================================================================================
input_1 (InputLayer)            [(None, 32, 32, 3)]  0                                            
__________________________________________________________________________________________________
conv2d (Conv2D)                 (None, 32, 32, 32)   864         input_1[0][0]                    
__________________________________________________________________________________________________
batch_normalization (BatchNorma (None, 32, 32, 32)   128         conv2d[0][0]                     
__________________________________________________________________________________________________
re_lu (ReLU)                    (None, 32, 32, 32)   0           batch_normalization[0][0]        
__________________________________________________________________________________________________
conv2d_1 (Conv2D)               (None, 32, 32, 32)   1024        re_lu[0][0]                      
__________________________________________________________________________________________________
batch_normalization_1 (BatchNor (None, 32, 32, 32)   128         conv2d_1[0][0]                   
__________________________________________________________________________________________________
re_lu_1 (ReLU)                  (None, 32, 32, 32)   0           batch_normalization_1[0][0]      
__________________________________________________________________________________________________
depthwise_conv2d (DepthwiseConv (None, 32, 32, 32)   288         re_lu_1[0][0]                    
__________________________________________________________________________________________________
batch_normalization_2 (BatchNor (None, 32, 32, 32)   128         depthwise_conv2d[0][0]           
__________________________________________________________________________________________________
re_lu_2 (ReLU)                  (None, 32, 32, 32)   0           batch_normalization_2[0][0]      
__________________________________________________________________________________________________
conv2d_2 (Conv2D)               (None, 32, 32, 16)   512         re_lu_2[0][0]                    
__________________________________________________________________________________________________
batch_normalization_3 (BatchNor (None, 32, 32, 16)   64          conv2d_2[0][0]                   
__________________________________________________________________________________________________
conv2d_3 (Conv2D)               (None, 32, 32, 96)   1536        batch_normalization_3[0][0]      
__________________________________________________________________________________________________
batch_normalization_4 (BatchNor (None, 32, 32, 96)   384         conv2d_3[0][0]                   
__________________________________________________________________________________________________
re_lu_3 (ReLU)                  (None, 32, 32, 96)   0           batch_normalization_4[0][0]      
__________________________________________________________________________________________________
depthwise_conv2d_1 (DepthwiseCo (None, 32, 32, 96)   864         re_lu_3[0][0]                    
__________________________________________________________________________________________________
batch_normalization_5 (BatchNor (None, 32, 32, 96)   384         depthwise_conv2d_1[0][0]         
__________________________________________________________________________________________________
re_lu_4 (ReLU)                  (None, 32, 32, 96)   0           batch_normalization_5[0][0]      
__________________________________________________________________________________________________
conv2d_4 (Conv2D)               (None, 32, 32, 24)   2304        re_lu_4[0][0]                    
__________________________________________________________________________________________________
batch_normalization_6 (BatchNor (None, 32, 32, 24)   96          conv2d_4[0][0]                   
__________________________________________________________________________________________________
conv2d_5 (Conv2D)               (None, 32, 32, 144)  3456        batch_normalization_6[0][0]      
__________________________________________________________________________________________________
batch_normalization_7 (BatchNor (None, 32, 32, 144)  576         conv2d_5[0][0]                   
__________________________________________________________________________________________________
re_lu_5 (ReLU)                  (None, 32, 32, 144)  0           batch_normalization_7[0][0]      
__________________________________________________________________________________________________
depthwise_conv2d_2 (DepthwiseCo (None, 32, 32, 144)  1296        re_lu_5[0][0]                    
__________________________________________________________________________________________________
batch_normalization_8 (BatchNor (None, 32, 32, 144)  576         depthwise_conv2d_2[0][0]         
__________________________________________________________________________________________________
re_lu_6 (ReLU)                  (None, 32, 32, 144)  0           batch_normalization_8[0][0]      
__________________________________________________________________________________________________
conv2d_6 (Conv2D)               (None, 32, 32, 24)   3456        re_lu_6[0][0]                    
__________________________________________________________________________________________________
batch_normalization_9 (BatchNor (None, 32, 32, 24)   96          conv2d_6[0][0]                   
__________________________________________________________________________________________________
tf_op_layer_Add (TensorFlowOpLa (None, 32, 32, 24)   0           batch_normalization_9[0][0]      
                                                                 batch_normalization_6[0][0]      
__________________________________________________________________________________________________
conv2d_7 (Conv2D)               (None, 32, 32, 144)  3456        tf_op_layer_Add[0][0]            
__________________________________________________________________________________________________
batch_normalization_10 (BatchNo (None, 32, 32, 144)  576         conv2d_7[0][0]                   
__________________________________________________________________________________________________
re_lu_7 (ReLU)                  (None, 32, 32, 144)  0           batch_normalization_10[0][0]     
__________________________________________________________________________________________________
depthwise_conv2d_3 (DepthwiseCo (None, 32, 32, 144)  1296        re_lu_7[0][0]                    
__________________________________________________________________________________________________
batch_normalization_11 (BatchNo (None, 32, 32, 144)  576         depthwise_conv2d_3[0][0]         
__________________________________________________________________________________________________
re_lu_8 (ReLU)                  (None, 32, 32, 144)  0           batch_normalization_11[0][0]     
__________________________________________________________________________________________________
conv2d_8 (Conv2D)               (None, 32, 32, 32)   4608        re_lu_8[0][0]                    
__________________________________________________________________________________________________
batch_normalization_12 (BatchNo (None, 32, 32, 32)   128         conv2d_8[0][0]                   
__________________________________________________________________________________________________
conv2d_9 (Conv2D)               (None, 32, 32, 192)  6144        batch_normalization_12[0][0]     
__________________________________________________________________________________________________
batch_normalization_13 (BatchNo (None, 32, 32, 192)  768         conv2d_9[0][0]                   
__________________________________________________________________________________________________
re_lu_9 (ReLU)                  (None, 32, 32, 192)  0           batch_normalization_13[0][0]     
__________________________________________________________________________________________________
depthwise_conv2d_4 (DepthwiseCo (None, 32, 32, 192)  1728        re_lu_9[0][0]                    
__________________________________________________________________________________________________
batch_normalization_14 (BatchNo (None, 32, 32, 192)  768         depthwise_conv2d_4[0][0]         
__________________________________________________________________________________________________
re_lu_10 (ReLU)                 (None, 32, 32, 192)  0           batch_normalization_14[0][0]     
__________________________________________________________________________________________________
conv2d_10 (Conv2D)              (None, 32, 32, 32)   6144        re_lu_10[0][0]                   
__________________________________________________________________________________________________
batch_normalization_15 (BatchNo (None, 32, 32, 32)   128         conv2d_10[0][0]                  
__________________________________________________________________________________________________
tf_op_layer_Add_1 (TensorFlowOp (None, 32, 32, 32)   0           batch_normalization_15[0][0]     
                                                                 batch_normalization_12[0][0]     
__________________________________________________________________________________________________
conv2d_11 (Conv2D)              (None, 32, 32, 192)  6144        tf_op_layer_Add_1[0][0]          
__________________________________________________________________________________________________
batch_normalization_16 (BatchNo (None, 32, 32, 192)  768         conv2d_11[0][0]                  
__________________________________________________________________________________________________
re_lu_11 (ReLU)                 (None, 32, 32, 192)  0           batch_normalization_16[0][0]     
__________________________________________________________________________________________________
depthwise_conv2d_5 (DepthwiseCo (None, 32, 32, 192)  1728        re_lu_11[0][0]                   
__________________________________________________________________________________________________
batch_normalization_17 (BatchNo (None, 32, 32, 192)  768         depthwise_conv2d_5[0][0]         
__________________________________________________________________________________________________
re_lu_12 (ReLU)                 (None, 32, 32, 192)  0           batch_normalization_17[0][0]     
__________________________________________________________________________________________________
conv2d_12 (Conv2D)              (None, 32, 32, 32)   6144        re_lu_12[0][0]                   
__________________________________________________________________________________________________
batch_normalization_18 (BatchNo (None, 32, 32, 32)   128         conv2d_12[0][0]                  
__________________________________________________________________________________________________
tf_op_layer_Add_2 (TensorFlowOp (None, 32, 32, 32)   0           batch_normalization_18[0][0]     
                                                                 tf_op_layer_Add_1[0][0]          
__________________________________________________________________________________________________
conv2d_13 (Conv2D)              (None, 32, 32, 192)  6144        tf_op_layer_Add_2[0][0]          
__________________________________________________________________________________________________
batch_normalization_19 (BatchNo (None, 32, 32, 192)  768         conv2d_13[0][0]                  
__________________________________________________________________________________________________
re_lu_13 (ReLU)                 (None, 32, 32, 192)  0           batch_normalization_19[0][0]     
__________________________________________________________________________________________________
depthwise_conv2d_6 (DepthwiseCo (None, 16, 16, 192)  1728        re_lu_13[0][0]                   
__________________________________________________________________________________________________
batch_normalization_20 (BatchNo (None, 16, 16, 192)  768         depthwise_conv2d_6[0][0]         
__________________________________________________________________________________________________
re_lu_14 (ReLU)                 (None, 16, 16, 192)  0           batch_normalization_20[0][0]     
__________________________________________________________________________________________________
conv2d_14 (Conv2D)              (None, 16, 16, 64)   12288       re_lu_14[0][0]                   
__________________________________________________________________________________________________
batch_normalization_21 (BatchNo (None, 16, 16, 64)   256         conv2d_14[0][0]                  
__________________________________________________________________________________________________
conv2d_15 (Conv2D)              (None, 16, 16, 384)  24576       batch_normalization_21[0][0]     
__________________________________________________________________________________________________
batch_normalization_22 (BatchNo (None, 16, 16, 384)  1536        conv2d_15[0][0]                  
__________________________________________________________________________________________________
re_lu_15 (ReLU)                 (None, 16, 16, 384)  0           batch_normalization_22[0][0]     
__________________________________________________________________________________________________
depthwise_conv2d_7 (DepthwiseCo (None, 16, 16, 384)  3456        re_lu_15[0][0]                   
__________________________________________________________________________________________________
batch_normalization_23 (BatchNo (None, 16, 16, 384)  1536        depthwise_conv2d_7[0][0]         
__________________________________________________________________________________________________
re_lu_16 (ReLU)                 (None, 16, 16, 384)  0           batch_normalization_23[0][0]     
__________________________________________________________________________________________________
conv2d_16 (Conv2D)              (None, 16, 16, 64)   24576       re_lu_16[0][0]                   
__________________________________________________________________________________________________
batch_normalization_24 (BatchNo (None, 16, 16, 64)   256         conv2d_16[0][0]                  
__________________________________________________________________________________________________
tf_op_layer_Add_3 (TensorFlowOp (None, 16, 16, 64)   0           batch_normalization_24[0][0]     
                                                                 batch_normalization_21[0][0]     
__________________________________________________________________________________________________
conv2d_17 (Conv2D)              (None, 16, 16, 384)  24576       tf_op_layer_Add_3[0][0]          
__________________________________________________________________________________________________
batch_normalization_25 (BatchNo (None, 16, 16, 384)  1536        conv2d_17[0][0]                  
__________________________________________________________________________________________________
re_lu_17 (ReLU)                 (None, 16, 16, 384)  0           batch_normalization_25[0][0]     
__________________________________________________________________________________________________
depthwise_conv2d_8 (DepthwiseCo (None, 16, 16, 384)  3456        re_lu_17[0][0]                   
__________________________________________________________________________________________________
batch_normalization_26 (BatchNo (None, 16, 16, 384)  1536        depthwise_conv2d_8[0][0]         
__________________________________________________________________________________________________
re_lu_18 (ReLU)                 (None, 16, 16, 384)  0           batch_normalization_26[0][0]     
__________________________________________________________________________________________________
conv2d_18 (Conv2D)              (None, 16, 16, 64)   24576       re_lu_18[0][0]                   
__________________________________________________________________________________________________
batch_normalization_27 (BatchNo (None, 16, 16, 64)   256         conv2d_18[0][0]                  
__________________________________________________________________________________________________
tf_op_layer_Add_4 (TensorFlowOp (None, 16, 16, 64)   0           batch_normalization_27[0][0]     
                                                                 tf_op_layer_Add_3[0][0]          
__________________________________________________________________________________________________
conv2d_19 (Conv2D)              (None, 16, 16, 384)  24576       tf_op_layer_Add_4[0][0]          
__________________________________________________________________________________________________
batch_normalization_28 (BatchNo (None, 16, 16, 384)  1536        conv2d_19[0][0]                  
__________________________________________________________________________________________________
re_lu_19 (ReLU)                 (None, 16, 16, 384)  0           batch_normalization_28[0][0]     
__________________________________________________________________________________________________
depthwise_conv2d_9 (DepthwiseCo (None, 16, 16, 384)  3456        re_lu_19[0][0]                   
__________________________________________________________________________________________________
batch_normalization_29 (BatchNo (None, 16, 16, 384)  1536        depthwise_conv2d_9[0][0]         
__________________________________________________________________________________________________
re_lu_20 (ReLU)                 (None, 16, 16, 384)  0           batch_normalization_29[0][0]     
__________________________________________________________________________________________________
conv2d_20 (Conv2D)              (None, 16, 16, 64)   24576       re_lu_20[0][0]                   
__________________________________________________________________________________________________
batch_normalization_30 (BatchNo (None, 16, 16, 64)   256         conv2d_20[0][0]                  
__________________________________________________________________________________________________
tf_op_layer_Add_5 (TensorFlowOp (None, 16, 16, 64)   0           batch_normalization_30[0][0]     
                                                                 tf_op_layer_Add_4[0][0]          
__________________________________________________________________________________________________
conv2d_21 (Conv2D)              (None, 16, 16, 384)  24576       tf_op_layer_Add_5[0][0]          
__________________________________________________________________________________________________
batch_normalization_31 (BatchNo (None, 16, 16, 384)  1536        conv2d_21[0][0]                  
__________________________________________________________________________________________________
re_lu_21 (ReLU)                 (None, 16, 16, 384)  0           batch_normalization_31[0][0]     
__________________________________________________________________________________________________
depthwise_conv2d_10 (DepthwiseC (None, 16, 16, 384)  3456        re_lu_21[0][0]                   
__________________________________________________________________________________________________
batch_normalization_32 (BatchNo (None, 16, 16, 384)  1536        depthwise_conv2d_10[0][0]        
__________________________________________________________________________________________________
re_lu_22 (ReLU)                 (None, 16, 16, 384)  0           batch_normalization_32[0][0]     
__________________________________________________________________________________________________
conv2d_22 (Conv2D)              (None, 16, 16, 96)   36864       re_lu_22[0][0]                   
__________________________________________________________________________________________________
batch_normalization_33 (BatchNo (None, 16, 16, 96)   384         conv2d_22[0][0]                  
__________________________________________________________________________________________________
conv2d_23 (Conv2D)              (None, 16, 16, 576)  55296       batch_normalization_33[0][0]     
__________________________________________________________________________________________________
batch_normalization_34 (BatchNo (None, 16, 16, 576)  2304        conv2d_23[0][0]                  
__________________________________________________________________________________________________
re_lu_23 (ReLU)                 (None, 16, 16, 576)  0           batch_normalization_34[0][0]     
__________________________________________________________________________________________________
depthwise_conv2d_11 (DepthwiseC (None, 16, 16, 576)  5184        re_lu_23[0][0]                   
__________________________________________________________________________________________________
batch_normalization_35 (BatchNo (None, 16, 16, 576)  2304        depthwise_conv2d_11[0][0]        
__________________________________________________________________________________________________
re_lu_24 (ReLU)                 (None, 16, 16, 576)  0           batch_normalization_35[0][0]     
__________________________________________________________________________________________________
conv2d_24 (Conv2D)              (None, 16, 16, 96)   55296       re_lu_24[0][0]                   
__________________________________________________________________________________________________
batch_normalization_36 (BatchNo (None, 16, 16, 96)   384         conv2d_24[0][0]                  
__________________________________________________________________________________________________
tf_op_layer_Add_6 (TensorFlowOp (None, 16, 16, 96)   0           batch_normalization_36[0][0]     
                                                                 batch_normalization_33[0][0]     
__________________________________________________________________________________________________
conv2d_25 (Conv2D)              (None, 16, 16, 576)  55296       tf_op_layer_Add_6[0][0]          
__________________________________________________________________________________________________
batch_normalization_37 (BatchNo (None, 16, 16, 576)  2304        conv2d_25[0][0]                  
__________________________________________________________________________________________________
re_lu_25 (ReLU)                 (None, 16, 16, 576)  0           batch_normalization_37[0][0]     
__________________________________________________________________________________________________
depthwise_conv2d_12 (DepthwiseC (None, 16, 16, 576)  5184        re_lu_25[0][0]                   
__________________________________________________________________________________________________
batch_normalization_38 (BatchNo (None, 16, 16, 576)  2304        depthwise_conv2d_12[0][0]        
__________________________________________________________________________________________________
re_lu_26 (ReLU)                 (None, 16, 16, 576)  0           batch_normalization_38[0][0]     
__________________________________________________________________________________________________
conv2d_26 (Conv2D)              (None, 16, 16, 96)   55296       re_lu_26[0][0]                   
__________________________________________________________________________________________________
batch_normalization_39 (BatchNo (None, 16, 16, 96)   384         conv2d_26[0][0]                  
__________________________________________________________________________________________________
tf_op_layer_Add_7 (TensorFlowOp (None, 16, 16, 96)   0           batch_normalization_39[0][0]     
                                                                 tf_op_layer_Add_6[0][0]          
__________________________________________________________________________________________________
conv2d_27 (Conv2D)              (None, 16, 16, 576)  55296       tf_op_layer_Add_7[0][0]          
__________________________________________________________________________________________________
batch_normalization_40 (BatchNo (None, 16, 16, 576)  2304        conv2d_27[0][0]                  
__________________________________________________________________________________________________
re_lu_27 (ReLU)                 (None, 16, 16, 576)  0           batch_normalization_40[0][0]     
__________________________________________________________________________________________________WARNING:tensorflow:From /home/mohamadol/.local/lib/python3.6/site-packages/tensorflow/python/data/ops/multi_device_iterator_ops.py:601: get_next_as_optional (from tensorflow.python.data.ops.iterator_ops) is deprecated and will be removed in a future version.
…
WARNING:tensorflow:From /home/mohamadol/.local/lib/python3.6/site-packages/tensorflow/python/data/ops/multi_device_iterator_ops.py:601: get_next_as_optional (from tensorflow.python.data.ops.iterator_ops) is deprecated and will be removed in a future version.
Instructions for updating:
Use `tf.data.Iterator.get_next_as_optional()` instead.
2021-06-28 15:38:34.259309: I tensorflow/stream_executor/platform/default/dso_loader.cc:48] Successfully opened dynamic library libcublas.so.10
2021-06-28 15:38:36.143839: I tensorflow/stream_executor/platform/default/dso_loader.cc:48] Successfully opened dynamic library libcudnn.so.7

depthwise_conv2d_13 (DepthwiseC (None, 8, 8, 576)    5184        re_lu_27[0][0]                   
__________________________________________________________________________________________________
batch_normalization_41 (BatchNo (None, 8, 8, 576)    2304        depthwise_conv2d_13[0][0]        
__________________________________________________________________________________________________
re_lu_28 (ReLU)                 (None, 8, 8, 576)    0           batch_normalization_41[0][0]     
__________________________________________________________________________________________________
conv2d_28 (Conv2D)              (None, 8, 8, 160)    92160       re_lu_28[0][0]                   
__________________________________________________________________________________________________
batch_normalization_42 (BatchNo (None, 8, 8, 160)    640         conv2d_28[0][0]                  
__________________________________________________________________________________________________
conv2d_29 (Conv2D)              (None, 8, 8, 960)    153600      batch_normalization_42[0][0]     
__________________________________________________________________________________________________
batch_normalization_43 (BatchNo (None, 8, 8, 960)    3840        conv2d_29[0][0]                  
__________________________________________________________________________________________________
re_lu_29 (ReLU)                 (None, 8, 8, 960)    0           batch_normalization_43[0][0]     
__________________________________________________________________________________________________
depthwise_conv2d_14 (DepthwiseC (None, 8, 8, 960)    8640        re_lu_29[0][0]                   
__________________________________________________________________________________________________
batch_normalization_44 (BatchNo (None, 8, 8, 960)    3840        depthwise_conv2d_14[0][0]        
__________________________________________________________________________________________________
re_lu_30 (ReLU)                 (None, 8, 8, 960)    0           batch_normalization_44[0][0]     
__________________________________________________________________________________________________
conv2d_30 (Conv2D)              (None, 8, 8, 160)    153600      re_lu_30[0][0]                   
__________________________________________________________________________________________________
batch_normalization_45 (BatchNo (None, 8, 8, 160)    640         conv2d_30[0][0]                  
__________________________________________________________________________________________________
tf_op_layer_Add_8 (TensorFlowOp (None, 8, 8, 160)    0           batch_normalization_45[0][0]     
                                                                 batch_normalization_42[0][0]     
__________________________________________________________________________________________________
conv2d_31 (Conv2D)              (None, 8, 8, 960)    153600      tf_op_layer_Add_8[0][0]          
__________________________________________________________________________________________________
batch_normalization_46 (BatchNo (None, 8, 8, 960)    3840        conv2d_31[0][0]                  
__________________________________________________________________________________________________
re_lu_31 (ReLU)                 (None, 8, 8, 960)    0           batch_normalization_46[0][0]     
__________________________________________________________________________________________________
depthwise_conv2d_15 (DepthwiseC (None, 8, 8, 960)    8640        re_lu_31[0][0]                   
__________________________________________________________________________________________________
batch_normalization_47 (BatchNo (None, 8, 8, 960)    3840        depthwise_conv2d_15[0][0]        
__________________________________________________________________________________________________
re_lu_32 (ReLU)                 (None, 8, 8, 960)    0           batch_normalization_47[0][0]     
__________________________________________________________________________________________________
conv2d_32 (Conv2D)              (None, 8, 8, 160)    153600      re_lu_32[0][0]                   
__________________________________________________________________________________________________
batch_normalization_48 (BatchNo (None, 8, 8, 160)    640         conv2d_32[0][0]                  
__________________________________________________________________________________________________
tf_op_layer_Add_9 (TensorFlowOp (None, 8, 8, 160)    0           batch_normalization_48[0][0]     
                                                                 tf_op_layer_Add_8[0][0]          
__________________________________________________________________________________________________
conv2d_33 (Conv2D)              (None, 8, 8, 960)    153600      tf_op_layer_Add_9[0][0]          
__________________________________________________________________________________________________
batch_normalization_49 (BatchNo (None, 8, 8, 960)    3840        conv2d_33[0][0]                  
__________________________________________________________________________________________________
re_lu_33 (ReLU)                 (None, 8, 8, 960)    0           batch_normalization_49[0][0]     
__________________________________________________________________________________________________
depthwise_conv2d_16 (DepthwiseC (None, 8, 8, 960)    8640        re_lu_33[0][0]                   
__________________________________________________________________________________________________
batch_normalization_50 (BatchNo (None, 8, 8, 960)    3840        depthwise_conv2d_16[0][0]        
__________________________________________________________________________________________________
re_lu_34 (ReLU)                 (None, 8, 8, 960)    0           batch_normalization_50[0][0]     
__________________________________________________________________________________________________
conv2d_34 (Conv2D)              (None, 8, 8, 320)    307200      re_lu_34[0][0]                   
__________________________________________________________________________________________________
batch_normalization_51 (BatchNo (None, 8, 8, 320)    1280        conv2d_34[0][0]                  
__________________________________________________________________________________________________
conv2d_35 (Conv2D)              (None, 8, 8, 1280)   409600      batch_normalization_51[0][0]     
__________________________________________________________________________________________________
batch_normalization_52 (BatchNo (None, 8, 8, 1280)   5120        conv2d_35[0][0]                  
__________________________________________________________________________________________________
re_lu_35 (ReLU)                 (None, 8, 8, 1280)   0           batch_normalization_52[0][0]     
__________________________________________________________________________________________________
global_average_pooling2d (Globa (None, 1280)         0           re_lu_35[0][0]                   
__________________________________________________________________________________________________
dense (Dense)                   (None, 100)          128100      global_average_pooling2d[0][0]   
==================================================================================================
Total params: 2,387,236
Trainable params: 2,353,060
Non-trainable params: 34,176
__________________________________________________________________________________________________
  1/156 [..............................] - ETA: 0s - loss: 0.7439 - accuracy: 0.
…
