…
WARNING:tensorflow:No training configuration found in the save file, so the model was *not* compiled. Compile it manually.
Model: "functional_1"
__________________________________________________________________________________________________
Layer (type)                    Output Shape         Param #     Connected to                     
==================================================================================================
input_1 (InputLayer)            [(None, 32, 32, 3)]  0                                            
__________________________________________________________________________________________________
conv2d (Conv2D)                 (None, 32, 32, 32)   864         input_1[0][0]                    
__________________________________________________________________________________________________
batch_normalization (BatchNorma (None, 32, 32, 32)   128         conv2d[0][0]                     
__________________________________________________________________________________________________
re_lu (ReLU)                    (None, 32, 32, 32)   0           batch_normalization[0][0]        
__________________________________________________________________________________________________
tf_op_layer_strided_slice (Tens (None, 32, 32, 8)    0           re_lu[0][0]                      
__________________________________________________________________________________________________
tf_op_layer_strided_slice_1 (Te (None, 32, 32, 8)    0           re_lu[0][0]                      
__________________________________________________________________________________________________
tf_op_layer_strided_slice_2 (Te (None, 32, 32, 8)    0           re_lu[0][0]                      
__________________________________________________________________________________________________
tf_op_layer_strided_slice_3 (Te (None, 32, 32, 8)    0           re_lu[0][0]                      
__________________________________________________________________________________________________
conv2d_1 (Conv2D)               (None, 32, 32, 8)    64          tf_op_layer_strided_slice[0][0]  
__________________________________________________________________________________________________
conv2d_2 (Conv2D)               (None, 32, 32, 8)    64          tf_op_layer_strided_slice_1[0][0]
__________________________________________________________________________________________________
conv2d_3 (Conv2D)               (None, 32, 32, 8)    64          tf_op_layer_strided_slice_2[0][0]
__________________________________________________________________________________________________
conv2d_4 (Conv2D)               (None, 32, 32, 8)    64          tf_op_layer_strided_slice_3[0][0]
__________________________________________________________________________________________________
concatenate (Concatenate)       (None, 32, 32, 32)   0           conv2d_1[0][0]                   
                                                                 conv2d_2[0][0]                   
                                                                 conv2d_3[0][0]                   
                                                                 conv2d_4[0][0]                   
__________________________________________________________________________________________________
batch_normalization_1 (BatchNor (None, 32, 32, 32)   128         concatenate[0][0]                
__________________________________________________________________________________________________
re_lu_1 (ReLU)                  (None, 32, 32, 32)   0           batch_normalization_1[0][0]      
__________________________________________________________________________________________________
reshape (Reshape)               (None, 32, 32, 4, 8) 0           re_lu_1[0][0]                    
__________________________________________________________________________________________________
permute (Permute)               (None, 32, 32, 8, 4) 0           reshape[0][0]                    
__________________________________________________________________________________________________
reshape_1 (Reshape)             (None, 32, 32, 32)   0           permute[0][0]                    
__________________________________________________________________________________________________
depthwise_conv2d (DepthwiseConv (None, 32, 32, 32)   288         reshape_1[0][0]                  
__________________________________________________________________________________________________
batch_normalization_2 (BatchNor (None, 32, 32, 32)   128         depthwise_conv2d[0][0]           
__________________________________________________________________________________________________
tf_op_layer_strided_slice_4 (Te (None, 32, 32, 8)    0           batch_normalization_2[0][0]      
__________________________________________________________________________________________________
tf_op_layer_strided_slice_5 (Te (None, 32, 32, 8)    0           batch_normalization_2[0][0]      
__________________________________________________________________________________________________
tf_op_layer_strided_slice_6 (Te (None, 32, 32, 8)    0           batch_normalization_2[0][0]      
__________________________________________________________________________________________________
tf_op_layer_strided_slice_7 (Te (None, 32, 32, 8)    0           batch_normalization_2[0][0]      
__________________________________________________________________________________________________
conv2d_5 (Conv2D)               (None, 32, 32, 592)  4736        tf_op_layer_strided_slice_4[0][0]
__________________________________________________________________________________________________
conv2d_6 (Conv2D)               (None, 32, 32, 592)  4736        tf_op_layer_strided_slice_5[0][0]
__________________________________________________________________________________________________
conv2d_7 (Conv2D)               (None, 32, 32, 592)  4736        tf_op_layer_strided_slice_6[0][0]
__________________________________________________________________________________________________
conv2d_8 (Conv2D)               (None, 32, 32, 592)  4736        tf_op_layer_strided_slice_7[0][0]
__________________________________________________________________________________________________
concatenate_1 (Concatenate)     (None, 32, 32, 2368) 0           conv2d_5[0][0]                   
                                                                 conv2d_6[0][0]                   
                                                                 conv2d_7[0][0]                   
                                                                 conv2d_8[0][0]                   
__________________________________________________________________________________________________
batch_normalization_3 (BatchNor (None, 32, 32, 2368) 9472        concatenate_1[0][0]              
__________________________________________________________________________________________________
re_lu_2 (ReLU)                  (None, 32, 32, 2368) 0           batch_normalization_3[0][0]      
__________________________________________________________________________________________________
depthwise_conv2d_1 (DepthwiseCo (None, 32, 32, 2368) 21312       re_lu_2[0][0]                    
__________________________________________________________________________________________________
batch_normalization_4 (BatchNor (None, 32, 32, 2368) 9472        depthwise_conv2d_1[0][0]         
__________________________________________________________________________________________________
re_lu_3 (ReLU)                  (None, 32, 32, 2368) 0           batch_normalization_4[0][0]      
__________________________________________________________________________________________________
tf_op_layer_strided_slice_8 (Te (None, 32, 32, 592)  0           re_lu_3[0][0]                    
__________________________________________________________________________________________________
tf_op_layer_strided_slice_9 (Te (None, 32, 32, 592)  0           re_lu_3[0][0]                    
__________________________________________________________________________________________________
tf_op_layer_strided_slice_10 (T (None, 32, 32, 592)  0           re_lu_3[0][0]                    
__________________________________________________________________________________________________
tf_op_layer_strided_slice_11 (T (None, 32, 32, 592)  0           re_lu_3[0][0]                    
__________________________________________________________________________________________________
conv2d_9 (Conv2D)               (None, 32, 32, 8)    4736        tf_op_layer_strided_slice_8[0][0]
__________________________________________________________________________________________________
conv2d_10 (Conv2D)              (None, 32, 32, 8)    4736        tf_op_layer_strided_slice_9[0][0]
__________________________________________________________________________________________________
conv2d_11 (Conv2D)              (None, 32, 32, 8)    4736        tf_op_layer_strided_slice_10[0][0
__________________________________________________________________________________________________
conv2d_12 (Conv2D)              (None, 32, 32, 8)    4736        tf_op_layer_strided_slice_11[0][0
__________________________________________________________________________________________________
concatenate_2 (Concatenate)     (None, 32, 32, 32)   0           conv2d_9[0][0]                   
                                                                 conv2d_10[0][0]                  
                                                                 conv2d_11[0][0]                  
                                                                 conv2d_12[0][0]                  
__________________________________________________________________________________________________
batch_normalization_5 (BatchNor (None, 32, 32, 32)   128         concatenate_2[0][0]              
__________________________________________________________________________________________________
reshape_2 (Reshape)             (None, 32, 32, 4, 8) 0           batch_normalization_5[0][0]      
__________________________________________________________________________________________________
permute_1 (Permute)             (None, 32, 32, 8, 4) 0           reshape_2[0][0]                  
__________________________________________________________________________________________________
reshape_3 (Reshape)             (None, 32, 32, 32)   0           permute_1[0][0]                  
__________________________________________________________________________________________________
tf_op_layer_strided_slice_12 (T (None, 32, 32, 8)    0           reshape_3[0][0]                  
__________________________________________________________________________________________________
tf_op_layer_strided_slice_13 (T (None, 32, 32, 8)    0           reshape_3[0][0]                  
__________________________________________________________________________________________________
tf_op_layer_strided_slice_14 (T (None, 32, 32, 8)    0           reshape_3[0][0]                  
__________________________________________________________________________________________________
tf_op_layer_strided_slice_15 (T (None, 32, 32, 8)    0           reshape_3[0][0]                  
__________________________________________________________________________________________________
conv2d_13 (Conv2D)              (None, 32, 32, 592)  4736        tf_op_layer_strided_slice_12[0][0
__________________________________________________________________________________________________
conv2d_14 (Conv2D)              (None, 32, 32, 592)  4736        tf_op_layer_strided_slice_13[0][0
__________________________________________________________________________________________________
conv2d_15 (Conv2D)              (None, 32, 32, 592)  4736        tf_op_layer_strided_slice_14[0][0
__________________________________________________________________________________________________
conv2d_16 (Conv2D)              (None, 32, 32, 592)  4736        tf_op_layer_strided_slice_15[0][0
__________________________________________________________________________________________________
concatenate_3 (Concatenate)     (None, 32, 32, 2368) 0           conv2d_13[0][0]                  
                                                                 conv2d_14[0][0]                  
                                                                 conv2d_15[0][0]                  
                                                                 conv2d_16[0][0]                  
__________________________________________________________________________________________________
batch_normalization_6 (BatchNor (None, 32, 32, 2368) 9472        concatenate_3[0][0]              
__________________________________________________________________________________________________
re_lu_4 (ReLU)                  (None, 32, 32, 2368) 0           batch_normalization_6[0][0]      
__________________________________________________________________________________________________
depthwise_conv2d_2 (DepthwiseCo (None, 32, 32, 2368) 21312       re_lu_4[0][0]                    
__________________________________________________________________________________________________
batch_normalization_7 (BatchNor (None, 32, 32, 2368) 9472        depthwise_conv2d_2[0][0]         
__________________________________________________________________________________________________
re_lu_5 (ReLU)                  (None, 32, 32, 2368) 0           batch_normalization_7[0][0]      
__________________________________________________________________________________________________
tf_op_layer_strided_slice_16 (T (None, 32, 32, 592)  0           re_lu_5[0][0]                    
__________________________________________________________________________________________________
tf_op_layer_strided_slice_17 (T (None, 32, 32, 592)  0           re_lu_5[0][0]                    
__________________________________________________________________________________________________
tf_op_layer_strided_slice_18 (T (None, 32, 32, 592)  0           re_lu_5[0][0]                    
__________________________________________________________________________________________________
tf_op_layer_strided_slice_19 (T (None, 32, 32, 592)  0           re_lu_5[0][0]                    
__________________________________________________________________________________________________
conv2d_17 (Conv2D)              (None, 32, 32, 8)    4736        tf_op_layer_strided_slice_16[0][0
__________________________________________________________________________________________________
conv2d_18 (Conv2D)              (None, 32, 32, 8)    4736        tf_op_layer_strided_slice_17[0][0
__________________________________________________________________________________________________
conv2d_19 (Conv2D)              (None, 32, 32, 8)    4736        tf_op_layer_strided_slice_18[0][0
__________________________________________________________________________________________________
conv2d_20 (Conv2D)              (None, 32, 32, 8)    4736        tf_op_layer_strided_slice_19[0][0
__________________________________________________________________________________________________
concatenate_4 (Concatenate)     (None, 32, 32, 32)   0           conv2d_17[0][0]                  
                                                                 conv2d_18[0][0]                  
                                                                 conv2d_19[0][0]                  
                                                                 conv2d_20[0][0]                  
__________________________________________________________________________________________________
batch_normalization_8 (BatchNor (None, 32, 32, 32)   128         concatenate_4[0][0]              
__________________________________________________________________________________________________
reshape_4 (Reshape)             (None, 32, 32, 4, 8) 0           batch_normalization_8[0][0]      
__________________________________________________________________________________________________
permute_2 (Permute)             (None, 32, 32, 8, 4) 0           reshape_4[0][0]                  
__________________________________________________________________________________________________
reshape_5 (Reshape)             (None, 32, 32, 32)   0           permute_2[0][0]                  
__________________________________________________________________________________________________
tf_op_layer_Add (TensorFlowOpLa (None, 32, 32, 32)   0           reshape_5[0][0]                  
                                                                 reshape_3[0][0]                  
__________________________________________________________________________________________________
tf_op_layer_strided_slice_20 (T (None, 32, 32, 8)    0           tf_op_layer_Add[0][0]            
__________________________________________________________________________________________________
tf_op_layer_strided_slice_21 (T (None, 32, 32, 8)    0           tf_op_layer_Add[0][0]            
__________________________________________________________________________________________________
tf_op_layer_strided_slice_22 (T (None, 32, 32, 8)    0           tf_op_layer_Add[0][0]            
__________________________________________________________________________________________________
tf_op_layer_strided_slice_23 (T (None, 32, 32, 8)    0           tf_op_layer_Add[0][0]            
__________________________________________________________________________________________________
conv2d_21 (Conv2D)              (None, 32, 32, 592)  4736        tf_op_layer_strided_slice_20[0][0
__________________________________________________________________________________________________
conv2d_22 (Conv2D)              (None, 32, 32, 592)  4736        tf_op_layer_strided_slice_21[0][0
__________________________________________________________________________________________________
conv2d_23 (Conv2D)              (None, 32, 32, 592)  4736        tf_op_layer_strided_slice_22[0][0
__________________________________________________________________________________________________
conv2d_24 (Conv2D)              (None, 32, 32, 592)  4736        tf_op_layer_strided_slice_23[0][0
__________________________________________________________________________________________________
concatenate_5 (Concatenate)     (None, 32, 32, 2368) 0           conv2d_21[0][0]                  
                                                                 conv2d_22[0][0]                  
                                                                 conv2d_23[0][0]                  
                                                                 conv2d_24[0][0]                  
__________________________________________________________________________________________________
batch_normalization_9 (BatchNor (None, 32, 32, 2368) 9472        concatenate_5[0][0]              
__________________________________________________________________________________________________
re_lu_6 (ReLU)                  (None, 32, 32, 2368) 0           batch_normalization_9[0][0]      
__________________________________________________________________________________________________
depthwise_conv2d_3 (DepthwiseCo (None, 32, 32, 2368) 21312       re_lu_6[0][0]                    
__________________________________________________________________________________________________
batch_normalization_10 (BatchNo (None, 32, 32, 2368) 9472        depthwise_conv2d_3[0][0]         
__________________________________________________________________________________________________
re_lu_7 (ReLU)                  (None, 32, 32, 2368) 0           batch_normalization_10[0][0]     
__________________________________________________________________________________________________
tf_op_layer_strided_slice_24 (T (None, 32, 32, 592)  0           re_lu_7[0][0]                    
__________________________________________________________________________________________________
tf_op_layer_strided_slice_25 (T (None, 32, 32, 592)  0           re_lu_7[0][0]                    
__________________________________________________________________________________________________
tf_op_layer_strided_slice_26 (T (None, 32, 32, 592)  0           re_lu_7[0][0]                    
__________________________________________________________________________________________________
tf_op_layer_strided_slice_27 (T (None, 32, 32, 592)  0           re_lu_7[0][0]                    
__________________________________________________________________________________________________
conv2d_25 (Conv2D)              (None, 32, 32, 8)    4736        tf_op_layer_strided_slice_24[0][0
__________________________________________________________________________________________________
conv2d_26 (Conv2D)              (None, 32, 32, 8)    4736        tf_op_layer_strided_slice_25[0][0
__________________________________________________________________________________________________
conv2d_27 (Conv2D)              (None, 32, 32, 8)    4736        tf_op_layer_strided_slice_26[0][0
__________________________________________________________________________________________________
conv2d_28 (Conv2D)              (None, 32, 32, 8)    4736        tf_op_layer_strided_slice_27[0][0
__________________________________________________________________________________________________
concatenate_6 (Concatenate)     (None, 32, 32, 32)   0           conv2d_25[0][0]                  
                                                                 conv2d_26[0][0]                  
                                                                 conv2d_27[0][0]                  
                                                                 conv2d_28[0][0]                  
__________________________________________________________________________________________________
batch_normalization_11 (BatchNo (None, 32, 32, 32)   128         concatenate_6[0][0]              
__________________________________________________________________________________________________
reshape_6 (Reshape)             (None, 32, 32, 4, 8) 0           batch_normalization_11[0][0]     
__________________________________________________________________________________________________
permute_3 (Permute)             (None, 32, 32, 8, 4) 0           reshape_6[0][0]                  
__________________________________________________________________________________________________
reshape_7 (Reshape)             (None, 32, 32, 32)   0           permute_3[0][0]                  
__________________________________________________________________________________________________
tf_op_layer_Add_1 (TensorFlowOp (None, 32, 32, 32)   0           reshape_7[0][0]                  
                                                                 tf_op_layer_Add[0][0]            
__________________________________________________________________________________________________
tf_op_layer_strided_slice_28 (T (None, 32, 32, 8)    0           tf_op_layer_Add_1[0][0]          
__________________________________________________________________________________________________
tf_op_layer_strided_slice_29 (T (None, 32, 32, 8)    0           tf_op_layer_Add_1[0][0]          
__________________________________________________________________________________________________
tf_op_layer_strided_slice_30 (T (None, 32, 32, 8)    0           tf_op_layer_Add_1[0][0]          
__________________________________________________________________________________________________
tf_op_layer_strided_slice_31 (T (None, 32, 32, 8)    0           tf_op_layer_Add_1[0][0]          
__________________________________________________________________________________________________
conv2d_29 (Conv2D)              (None, 32, 32, 592)  4736        tf_op_layer_strided_slice_28[0][0
__________________________________________________________________________________________________
conv2d_30 (Conv2D)              (None, 32, 32, 592)  4736        tf_op_layer_strided_slice_29[0][0
__________________________________________________________________________________________________
conv2d_31 (Conv2D)              (None, 32, 32, 592)  4736        tf_op_layer_strided_slice_30[0][0
__________________________________________________________________________________________________
conv2d_32 (Conv2D)              (None, 32, 32, 592)  4736        tf_op_layer_strided_slice_31[0][0
__________________________________________________________________________________________________
concatenate_7 (Concatenate)     (None, 32, 32, 2368) 0           conv2d_29[0][0]                  
                                                                 conv2d_30[0][0]                  
                                                                 conv2d_31[0][0]                  
                                                                 conv2d_32[0][0]                  
__________________________________________________________________________________________________
batch_normalization_12 (BatchNo (None, 32, 32, 2368) 9472        concatenate_7[0][0]              
__________________________________________________________________________________________________
re_lu_8 (ReLU)                  (None, 32, 32, 2368) 0           batch_normalization_12[0][0]     
__________________________________________________________________________________________________
depthwise_conv2d_4 (DepthwiseCo (None, 16, 16, 2368) 21312       re_lu_8[0][0]                    
__________________________________________________________________________________________________
batch_normalization_13 (BatchNo (None, 16, 16, 2368) 9472        depthwise_conv2d_4[0][0]         
__________________________________________________________________________________________________
re_lu_9 (ReLU)                  (None, 16, 16, 2368) 0           batch_normalization_13[0][0]     
__________________________________________________________________________________________________
tf_op_layer_strided_slice_32 (T (None, 16, 16, 592)  0           re_lu_9[0][0]                    
__________________________________________________________________________________________________
tf_op_layer_strided_slice_33 (T (None, 16, 16, 592)  0           re_lu_9[0][0]                    
__________________________________________________________________________________________________
tf_op_layer_strided_slice_34 (T (None, 16, 16, 592)  0           re_lu_9[0][0]                    
__________________________________________________________________________________________________
tf_op_layer_strided_slice_35 (T (None, 16, 16, 592)  0           re_lu_9[0][0]                    
__________________________________________________________________________________________________
conv2d_33 (Conv2D)              (None, 16, 16, 16)   9472        tf_op_layer_strided_slice_32[0][0
__________________________________________________________________________________________________
conv2d_34 (Conv2D)              (None, 16, 16, 16)   9472        tf_op_layer_strided_slice_33[0][0
__________________________________________________________________________________________________
conv2d_35 (Conv2D)              (None, 16, 16, 16)   9472        tf_op_layer_strided_slice_34[0][0
__________________________________________________________________________________________________
conv2d_36 (Conv2D)              (None, 16, 16, 16)   9472        tf_op_layer_strided_slice_35[0][0
__________________________________________________________________________________________________
concatenate_8 (Concatenate)     (None, 16, 16, 64)   0           conv2d_33[0][0]                  
                                                                 conv2d_34[0][0]                  
                                                                 conv2d_35[0][0]                  
                                                                 conv2d_36[0][0]                  
__________________________________________________________________________________________________
batch_normalization_14 (BatchNo (None, 16, 16, 64)   256         concatenate_8[0][0]              
__________________________________________________________________________________________________
reshape_8 (Reshape)             (None, 16, 16, 4, 16 0           batch_normalization_14[0][0]     
__________________________________________________________________________________________________
permute_4 (Permute)             (None, 16, 16, 16, 4 0           reshape_8[0][0]                  
__________________________________________________________________________________________________
reshape_9 (Reshape)             (None, 16, 16, 64)   0           permute_4[0][0]                  
__________________________________________________________________________________________________
tf_op_layer_strided_slice_36 (T (None, 16, 16, 16)   0           reshape_9[0][0]                  
__________________________________________________________________________________________________
tf_op_layer_strided_slice_37 (T (None, 16, 16, 16)   0           reshape_9[0][0]                  
__________________________________________________________________________________________________
tf_op_layer_strided_slice_38 (T (None, 16, 16, 16)   0           reshape_9[0][0]                  
__________________________________________________________________________________________________
tf_op_layer_strided_slice_39 (T (None, 16, 16, 16)   0           reshape_9[0][0]                  
__________________________________________________________________________________________________
conv2d_37 (Conv2D)              (None, 16, 16, 592)  9472        tf_op_layer_strided_slice_36[0][0
__________________________________________________________________________________________________
conv2d_38 (Conv2D)              (None, 16, 16, 592)  9472        tf_op_layer_strided_slice_37[0][0
__________________________________________________________________________________________________
conv2d_39 (Conv2D)              (None, 16, 16, 592)  9472        tf_op_layer_strided_slice_38[0][0
__________________________________________________________________________________________________
conv2d_40 (Conv2D)              (None, 16, 16, 592)  9472        tf_op_layer_strided_slice_39[0][0
__________________________________________________________________________________________________
concatenate_9 (Concatenate)     (None, 16, 16, 2368) 0           conv2d_37[0][0]                  
                                                                 conv2d_38[0][0]                  
                                                                 conv2d_39[0][0]                  
                                                                 conv2d_40[0][0]                  
__________________________________________________________________________________________________
batch_normalization_15 (BatchNo (None, 16, 16, 2368) 9472        concatenate_9[0][0]              
__________________________________________________________________________________________________
re_lu_10 (ReLU)                 (None, 16, 16, 2368) 0           batch_normalization_15[0][0]     
__________________________________________________________________________________________________
depthwise_conv2d_5 (DepthwiseCo (None, 16, 16, 2368) 21312       re_lu_10[0][0]                   
__________________________________________________________________________________________________
batch_normalization_16 (BatchNo (None, 16, 16, 2368) 9472        depthwise_conv2d_5[0][0]         
__________________________________________________________________________________________________
re_lu_11 (ReLU)                 (None, 16, 16, 2368) 0           batch_normalization_16[0][0]     
__________________________________________________________________________________________________
tf_op_layer_strided_slice_40 (T (None, 16, 16, 592)  0           re_lu_11[0][0]                   
__________________________________________________________________________________________________
tf_op_layer_strided_slice_41 (T (None, 16, 16, 592)  0           re_lu_11[0][0]                   
__________________________________________________________________________________________________
tf_op_layer_strided_slice_42 (T (None, 16, 16, 592)  0           re_lu_11[0][0]                   
__________________________________________________________________________________________________
tf_op_layer_strided_slice_43 (T (None, 16, 16, 592)  0           re_lu_11[0][0]                   
__________________________________________________________________________________________________
conv2d_41 (Conv2D)              (None, 16, 16, 16)   9472        tf_op_layer_strided_slice_40[0][0
__________________________________________________________________________________________________
conv2d_42 (Conv2D)              (None, 16, 16, 16)   9472        tf_op_layer_strided_slice_41[0][0
__________________________________________________________________________________________________
conv2d_43 (Conv2D)              (None, 16, 16, 16)   9472        tf_op_layer_strided_slice_42[0][0
__________________________________________________________________________________________________
conv2d_44 (Conv2D)              (None, 16, 16, 16)   9472        tf_op_layer_strided_slice_43[0][0
__________________________________________________________________________________________________
concatenate_10 (Concatenate)    (None, 16, 16, 64)   0           conv2d_41[0][0]                  
                                                                 conv2d_42[0][0]                  
                                                                 conv2d_43[0][0]                  
                                                                 conv2d_44[0][0]                  
__________________________________________________________________________________________________
batch_normalization_17 (BatchNo (None, 16, 16, 64)   256         concatenate_10[0][0]             
__________________________________________________________________________________________________
reshape_10 (Reshape)            (None, 16, 16, 4, 16 0           batch_normalization_17[0][0]     
__________________________________________________________________________________________________
permute_5 (Permute)             (None, 16, 16, 16, 4 0           reshape_10[0][0]                 
__________________________________________________________________________________________________
reshape_11 (Reshape)            (None, 16, 16, 64)   0           permute_5[0][0]                  
__________________________________________________________________________________________________
tf_op_layer_Add_2 (TensorFlowOp (None, 16, 16, 64)   0           reshape_11[0][0]                 
                                                                 reshape_9[0][0]                  
__________________________________________________________________________________________________
tf_op_layer_strided_slice_44 (T (None, 16, 16, 16)   0           tf_op_layer_Add_2[0][0]          
__________________________________________________________________________________________________
tf_op_layer_strided_slice_45 (T (None, 16, 16, 16)   0           tf_op_layer_Add_2[0][0]          
__________________________________________________________________________________________________
tf_op_layer_strided_slice_46 (T (None, 16, 16, 16)   0           tf_op_layer_Add_2[0][0]          
__________________________________________________________________________________________________
tf_op_layer_strided_slice_47 (T (None, 16, 16, 16)   0           tf_op_layer_Add_2[0][0]          
__________________________________________________________________________________________________
conv2d_45 (Conv2D)              (None, 16, 16, 592)  9472        tf_op_layer_strided_slice_44[0][0
__________________________________________________________________________________________________
conv2d_46 (Conv2D)              (None, 16, 16, 592)  9472        tf_op_layer_strided_slice_45[0][0
__________________________________________________________________________________________________
conv2d_47 (Conv2D)              (None, 16, 16, 592)  9472        tf_op_layer_strided_slice_46[0][0
__________________________________________________________________________________________________
conv2d_48 (Conv2D)              (None, 16, 16, 592)  9472        tf_op_layer_strided_slice_47[0][0
__________________________________________________________________________________________________
concatenate_11 (Concatenate)    (None, 16, 16, 2368) 0           conv2d_45[0][0]                  
                                                                 conv2d_46[0][0]                  
                                                                 conv2d_47[0][0]                  
                                                                 conv2d_48[0][0]                  
__________________________________________________________________________________________________
batch_normalization_18 (BatchNo (None, 16, 16, 2368) 9472        concatenate_11[0][0]             
__________________________________________________________________________________________________
re_lu_12 (ReLU)                 (None, 16, 16, 2368) 0           batch_normalization_18[0][0]     
__________________________________________________________________________________________________
depthwise_conv2d_6 (DepthwiseCo (None, 16, 16, 2368) 21312       re_lu_12[0][0]                   
__________________________________________________________________________________________________
batch_normalization_19 (BatchNo (None, 16, 16, 2368) 9472        depthwise_conv2d_6[0][0]         
__________________________________________________________________________________________________
re_lu_13 (ReLU)                 (None, 16, 16, 2368) 0           batch_normalization_19[0][0]     
__________________________________________________________________________________________________
tf_op_layer_strided_slice_48 (T (None, 16, 16, 592)  0           re_lu_13[0][0]                   
__________________________________________________________________________________________________
tf_op_layer_strided_slice_49 (T (None, 16, 16, 592)  0           re_lu_13[0][0]                   
__________________________________________________________________________________________________
tf_op_layer_strided_slice_50 (T (None, 16, 16, 592)  0           re_lu_13[0][0]                   
__________________________________________________________________________________________________
tf_op_layer_strided_slice_51 (T (None, 16, 16, 592)  0           re_lu_13[0][0]                   
__________________________________________________________________________________________________
conv2d_49 (Conv2D)              (None, 16, 16, 16)   9472        tf_op_layer_strided_slice_48[0][0
__________________________________________________________________________________________________
conv2d_50 (Conv2D)              (None, 16, 16, 16)   9472        tf_op_layer_strided_slice_49[0][0
__________________________________________________________________________________________________
conv2d_51 (Conv2D)              (None, 16, 16, 16)   9472        tf_op_layer_strided_slice_50[0][0
__________________________________________________________________________________________________
conv2d_52 (Conv2D)              (None, 16, 16, 16)   9472        tf_op_layer_strided_slice_51[0][0
__________________________________________________________________________________________________
concatenate_12 (Concatenate)    (None, 16, 16, 64)   0           conv2d_49[0][0]                  
                                                                 conv2d_50[0][0]                  
                                                                 conv2d_51[0][0]                  
                                                                 conv2d_52[0][0]                  
__________________________________________________________________________________________________
batch_normalization_20 (BatchNo (None, 16, 16, 64)   256         concatenate_12[0][0]             
__________________________________________________________________________________________________
reshape_12 (Reshape)            (None, 16, 16, 4, 16 0           batch_normalization_20[0][0]     
__________________________________________________________________________________________________
permute_6 (Permute)             (None, 16, 16, 16, 4 0           reshape_12[0][0]                 
__________________________________________________________________________________________________
reshape_13 (Reshape)            (None, 16, 16, 64)   0           permute_6[0][0]                  
__________________________________________________________________________________________________
tf_op_layer_Add_3 (TensorFlowOp (None, 16, 16, 64)   0           reshape_13[0][0]                 
                                                                 tf_op_layer_Add_2[0][0]          
__________________________________________________________________________________________________
tf_op_layer_strided_slice_52 (T (None, 16, 16, 16)   0           tf_op_layer_Add_3[0][0]          
__________________________________________________________________________________________________
tf_op_layer_strided_slice_53 (T (None, 16, 16, 16)   0           tf_op_layer_Add_3[0][0]          
__________________________________________________________________________________________________
tf_op_layer_strided_slice_54 (T (None, 16, 16, 16)   0           tf_op_layer_Add_3[0][0]          
__________________________________________________________________________________________________
tf_op_layer_strided_slice_55 (T (None, 16, 16, 16)   0           tf_op_layer_Add_3[0][0]          
__________________________________________________________________________________________________
conv2d_53 (Conv2D)              (None, 16, 16, 592)  9472        tf_op_layer_strided_slice_52[0][0
__________________________________________________________________________________________________
conv2d_54 (Conv2D)              (None, 16, 16, 592)  9472        tf_op_layer_strided_slice_53[0][0
__________________________________________________________________________________________________
conv2d_55 (Conv2D)              (None, 16, 16, 592)  9472        tf_op_layer_strided_slice_54[0][0
__________________________________________________________________________________________________
conv2d_56 (Conv2D)              (None, 16, 16, 592)  9472        tf_op_layer_strided_slice_55[0][0
__________________________________________________________________________________________________
concatenate_13 (Concatenate)    (None, 16, 16, 2368) 0           conv2d_53[0][0]                  
                                                                 conv2d_54[0][0]                  
                                                                 conv2d_55[0][0]                  
                                                                 conv2d_56[0][0]                  
__________________________________________________________________________________________________
batch_normalization_21 (BatchNo (None, 16, 16, 2368) 9472        concatenate_13[0][0]             
__________________________________________________________________________________________________
re_lu_14 (ReLU)                 (None, 16, 16, 2368) 0           batch_normalization_21[0][0]     
__________________________________________________________________________________________________
depthwise_conv2d_7 (DepthwiseCo (None, 16, 16, 2368) 21312       re_lu_14[0][0]                   
__________________________________________________________________________________________________
batch_normalization_22 (BatchNo (None, 16, 16, 2368) 9472        depthwise_conv2d_7[0][0]         
__________________________________________________________________________________________________
re_lu_15 (ReLU)                 (None, 16, 16, 2368) 0           batch_normalization_22[0][0]     
__________________________________________________________________________________________________
tf_op_layer_strided_slice_56 (T (None, 16, 16, 592)  0           re_lu_15[0][0]                   
__________________________________________________________________________________________________
tf_op_layer_strided_slice_57 (T (None, 16, 16, 592)  0           re_lu_15[0][0]                   
__________________________________________________________________________________________________
tf_op_layer_strided_slice_58 (T (None, 16, 16, 592)  0           re_lu_15[0][0]                   
__________________________________________________________________________________________________
tf_op_layer_strided_slice_59 (T (None, 16, 16, 592)  0           re_lu_15[0][0]                   
__________________________________________________________________________________________________
conv2d_57 (Conv2D)              (None, 16, 16, 16)   9472        tf_op_layer_strided_slice_56[0][0
__________________________________________________________________________________________________
conv2d_58 (Conv2D)              (None, 16, 16, 16)   9472        tf_op_layer_strided_slice_57[0][0
__________________________________________________________________________________________________
conv2d_59 (Conv2D)              (None, 16, 16, 16)   9472        tf_op_layer_strided_slice_58[0][0
__________________________________________________________________________________________________
conv2d_60 (Conv2D)              (None, 16, 16, 16)   9472        tf_op_layer_strided_slice_59[0][0
__________________________________________________________________________________________________
concatenate_14 (Concatenate)    (None, 16, 16, 64)   0           conv2d_57[0][0]                  
                                                                 conv2d_58[0][0]                  
                                                                 conv2d_59[0][0]                  
                                                                 conv2d_60[0][0]                  
__________________________________________________________________________________________________
batch_normalization_23 (BatchNo (None, 16, 16, 64)   256         concatenate_14[0][0]             
__________________________________________________________________________________________________
reshape_14 (Reshape)            (None, 16, 16, 4, 16 0           batch_normalization_23[0][0]     
__________________________________________________________________________________________________
permute_7 (Permute)             (None, 16, 16, 16, 4 0           reshape_14[0][0]                 
__________________________________________________________________________________________________
reshape_15 (Reshape)            (None, 16, 16, 64)   0           permute_7[0][0]                  
__________________________________________________________________________________________________
tf_op_layer_Add_4 (TensorFlowOp (None, 16, 16, 64)   0           reshape_15[0][0]                 
                                                                 tf_op_layer_Add_3[0][0]          
__________________________________________________________________________________________________
tf_op_layer_strided_slice_60 (T (None, 16, 16, 16)   0           tf_op_layer_Add_4[0][0]          
__________________________________________________________________________________________________
tf_op_layer_strided_slice_61 (T (None, 16, 16, 16)   0           tf_op_layer_Add_4[0][0]          
__________________________________________________________________________________________________
tf_op_layer_strided_slice_62 (T (None, 16, 16, 16)   0           tf_op_layer_Add_4[0][0]          
__________________________________________________________________________________________________
tf_op_layer_strided_slice_63 (T (None, 16, 16, 16)   0           tf_op_layer_Add_4[0][0]          
__________________________________________________________________________________________________
conv2d_61 (Conv2D)              (None, 16, 16, 592)  9472        tf_op_layer_strided_slice_60[0][0
__________________________________________________________________________________________________
conv2d_62 (Conv2D)              (None, 16, 16, 592)  9472        tf_op_layer_strided_slice_61[0][0
__________________________________________________________________________________________________
conv2d_63 (Conv2D)              (None, 16, 16, 592)  9472        tf_op_layer_strided_slice_62[0][0
__________________________________________________________________________________________________
conv2d_64 (Conv2D)              (None, 16, 16, 592)  9472        tf_op_layer_strided_slice_63[0][0
__________________________________________________________________________________________________
concatenate_15 (Concatenate)    (None, 16, 16, 2368) 0           conv2d_61[0][0]                  
                                                                 conv2d_62[0][0]                  
                                                                 conv2d_63[0][0]                  
                                                                 conv2d_64[0][0]                  
__________________________________________________________________________________________________
batch_normalization_24 (BatchNo (None, 16, 16, 2368) 9472        concatenate_15[0][0]             
__________________________________________________________________________________________________
re_lu_16 (ReLU)                 (None, 16, 16, 2368) 0           batch_normalization_24[0][0]     
__________________________________________________________________________________________________
depthwise_conv2d_8 (DepthwiseCo (None, 8, 8, 2368)   21312       re_lu_16[0][0]                   
__________________________________________________________________________________________________
batch_normalization_25 (BatchNo (None, 8, 8, 2368)   9472        depthwise_conv2d_8[0][0]         
__________________________________________________________________________________________________
re_lu_17 (ReLU)                 (None, 8, 8, 2368)   0           batch_normalization_25[0][0]     
__________________________________________________________________________________________________
tf_op_layer_strided_slice_64 (T (None, 8, 8, 592)    0           re_lu_17[0][0]                   
__________________________________________________________________________________________________
tf_op_layer_strided_slice_65 (T (None, 8, 8, 592)    0           re_lu_17[0][0]                   
__________________________________________________________________________________________________
tf_op_layer_strided_slice_66 (T (None, 8, 8, 592)    0           re_lu_17[0][0]                   
__________________________________________________________________________________________________
tf_op_layer_strided_slice_67 (T (None, 8, 8, 592)    0           re_lu_17[0][0]                   
__________________________________________________________________________________________________
conv2d_65 (Conv2D)              (None, 8, 8, 24)     14208       tf_op_layer_strided_slice_64[0][0
__________________________________________________________________________________________________
conv2d_66 (Conv2D)              (None, 8, 8, 24)     14208       tf_op_layer_strided_slice_65[0][0
__________________________________________________________________________________________________
conv2d_67 (Conv2D)              (None, 8, 8, 24)     14208       tf_op_layer_strided_slice_66[0][0
__________________________________________________________________________________________________
conv2d_68 (Conv2D)              (None, 8, 8, 24)     14208       tf_op_layer_strided_slice_67[0][0
__________________________________________________________________________________________________
concatenate_16 (Concatenate)    (None, 8, 8, 96)     0           conv2d_65[0][0]                  
                                                                 conv2d_66[0][0]                  
                                                                 conv2d_67[0][0]                  
                                                                 conv2d_68[0][0]                  
__________________________________________________________________________________________________
batch_normalization_26 (BatchNo (None, 8, 8, 96)     384         concatenate_16[0][0]             
__________________________________________________________________________________________________
reshape_16 (Reshape)            (None, 8, 8, 4, 24)  0           batch_normalization_26[0][0]     
__________________________________________________________________________________________________
permute_8 (Permute)             (None, 8, 8, 24, 4)  0           reshape_16[0][0]                 
__________________________________________________________________________________________________
reshape_17 (Reshape)            (None, 8, 8, 96)     0           permute_8[0][0]                  
__________________________________________________________________________________________________
tf_op_layer_strided_slice_68 (T (None, 8, 8, 24)     0           reshape_17[0][0]                 
__________________________________________________________________________________________________
tf_op_layer_strided_slice_69 (T (None, 8, 8, 24)     0           reshape_17[0][0]                 
__________________________________________________________________________________________________
tf_op_layer_strided_slice_70 (T (None, 8, 8, 24)     0           reshape_17[0][0]                 
__________________________________________________________________________________________________
tf_op_layer_strided_slice_71 (T (None, 8, 8, 24)     0           reshape_17[0][0]                 
__________________________________________________________________________________________________
conv2d_69 (Conv2D)              (None, 8, 8, 864)    20736       tf_op_layer_strided_slice_68[0][0
__________________________________________________________________________________________________
conv2d_70 (Conv2D)              (None, 8, 8, 864)    20736       tf_op_layer_strided_slice_69[0][0
__________________________________________________________________________________________________
conv2d_71 (Conv2D)              (None, 8, 8, 864)    20736       tf_op_layer_strided_slice_70[0][0
__________________________________________________________________________________________________
conv2d_72 (Conv2D)              (None, 8, 8, 864)    20736       tf_op_layer_strided_slice_71[0][0
__________________________________________________________________________________________________
concatenate_17 (Concatenate)    (None, 8, 8, 3456)   0           conv2d_69[0][0]                  
                                                                 conv2d_70[0][0]                  
                                                                 conv2d_71[0][0]                  
                                                                 conv2d_72[0][0]                  
__________________________________________________________________________________________________
batch_normalization_27 (BatchNo (None, 8, 8, 3456)   13824       concatenate_17[0][0]             
__________________________________________________________________________________________________
re_lu_18 (ReLU)                 (None, 8, 8, 3456)   0           batch_normalization_27[0][0]     
__________________________________________________________________________________________________
depthwise_conv2d_9 (DepthwiseCo (None, 8, 8, 3456)   31104       re_lu_18[0][0]                   
__________________________________________________________________________________________________
batch_normalization_28 (BatchNo (None, 8, 8, 3456)   13824       depthwise_conv2d_9[0][0]         
__________________________________________________________________________________________________
re_lu_19 (ReLU)                 (None, 8, 8, 3456)   0           batch_normalization_28[0][0]     
__________________________________________________________________________________________________
tf_op_layer_strided_slice_72 (T (None, 8, 8, 864)    0           re_lu_19[0][0]                   
__________________________________________________________________________________________________
tf_op_layer_strided_slice_73 (T (None, 8, 8, 864)    0           re_lu_19[0][0]                   
__________________________________________________________________________________________________
tf_op_layer_strided_slice_74 (T (None, 8, 8, 864)    0           re_lu_19[0][0]                   
__________________________________________________________________________________________________
tf_op_layer_strided_slice_75 (T (None, 8, 8, 864)    0           re_lu_19[0][0]                   
__________________________________________________________________________________________________
conv2d_73 (Conv2D)              (None, 8, 8, 24)     20736       tf_op_layer_strided_slice_72[0][0
__________________________________________________________________________________________________
conv2d_74 (Conv2D)              (None, 8, 8, 24)     20736       tf_op_layer_strided_slice_73[0][0
__________________________________________________________________________________________________
conv2d_75 (Conv2D)              (None, 8, 8, 24)     20736       tf_op_layer_strided_slice_74[0][0
__________________________________________________________________________________________________
conv2d_76 (Conv2D)              (None, 8, 8, 24)     20736       tf_op_layer_strided_slice_75[0][0
__________________________________________________________________________________________________
concatenate_18 (Concatenate)    (None, 8, 8, 96)     0           conv2d_73[0][0]                  
                                                                 conv2d_74[0][0]                  
                                                                 conv2d_75[0][0]                  
                                                                 conv2d_76[0][0]                  
__________________________________________________________________________________________________
batch_normalization_29 (BatchNo (None, 8, 8, 96)     384         concatenate_18[0][0]             
__________________________________________________________________________________________________
reshape_18 (Reshape)            (None, 8, 8, 4, 24)  0           batch_normalization_29[0][0]     
__________________________________________________________________________________________________
permute_9 (Permute)             (None, 8, 8, 24, 4)  0           reshape_18[0][0]                 
__________________________________________________________________________________________________
reshape_19 (Reshape)            (None, 8, 8, 96)     0           permute_9[0][0]                  
__________________________________________________________________________________________________
tf_op_layer_Add_5 (TensorFlowOp (None, 8, 8, 96)     0           reshape_19[0][0]                 
                                                                 reshape_17[0][0]                 
__________________________________________________________________________________________________
tf_op_layer_strided_slice_76 (T (None, 8, 8, 24)     0           tf_op_layer_Add_5[0][0]          
__________________________________________________________________________________________________
tf_op_layer_strided_slice_77 (T (None, 8, 8, 24)     0           tf_op_layer_Add_5[0][0]          
__________________________________________________________________________________________________
tf_op_layer_strided_slice_78 (T (None, 8, 8, 24)     0           tf_op_layer_Add_5[0][0]          
__________________________________________________________________________________________________
tf_op_layer_strided_slice_79 (T (None, 8, 8, 24)     0           tf_op_layer_Add_5[0][0]          
__________________________________________________________________________________________________
conv2d_77 (Conv2D)              (None, 8, 8, 864)    20736       tf_op_layer_strided_slice_76[0][0
__________________________________________________________________________________________________
conv2d_78 (Conv2D)              (None, 8, 8, 864)    20736       tf_op_layer_strided_slice_77[0][0
__________________________________________________________________________________________________
conv2d_79 (Conv2D)              (None, 8, 8, 864)    20736       tf_op_layer_strided_slice_78[0][0
__________________________________________________________________________________________________
conv2d_80 (Conv2D)              (None, 8, 8, 864)    20736       tf_op_layer_strided_slice_79[0][0
__________________________________________________________________________________________________
concatenate_19 (Concatenate)    (None, 8, 8, 3456)   0           conv2d_77[0][0]                  
                                                                 conv2d_78[0][0]                  
                                                                 conv2d_79[0][0]                  
                                                                 conv2d_80[0][0]                  
__________________________________________________________________________________________________
batch_normalization_30 (BatchNo (None, 8, 8, 3456)   13824       concatenate_19[0][0]             
__________________________________________________________________________________________________
re_lu_20 (ReLU)                 (None, 8, 8, 3456)   0           batch_normalization_30[0][0]     
__________________________________________________________________________________________________
depthwise_conv2d_10 (DepthwiseC (None, 8, 8, 3456)   31104       re_lu_20[0][0]                   
__________________________________________________________________________________________________
batch_normalization_31 (BatchNo (None, 8, 8, 3456)   13824       depthwise_conv2d_10[0][0]        
__________________________________________________________________________________________________
re_lu_21 (ReLU)                 (None, 8, 8, 3456)   0           batch_normalization_31[0][0]     
__________________________________________________________________________________________________
tf_op_layer_strided_slice_80 (T (None, 8, 8, 864)    0           re_lu_21[0][0]                   
__________________________________________________________________________________________________
tf_op_layer_strided_slice_81 (T (None, 8, 8, 864)    0           re_lu_21[0][0]                   
__________________________________________________________________________________________________
tf_op_layer_strided_slice_82 (T (None, 8, 8, 864)    0           re_lu_21[0][0]                   
__________________________________________________________________________________________________
tf_op_layer_strided_slice_83 (T (None, 8, 8, 864)    0           re_lu_21[0][0]                   
__________________________________________________________________________________________________
conv2d_81 (Conv2D)              (None, 8, 8, 24)     20736       tf_op_layer_strided_slice_80[0][0
__________________________________________________________________________________________________
conv2d_82 (Conv2D)              (None, 8, 8, 24)     20736       tf_op_layer_strided_slice_81[0][0
__________________________________________________________________________________________________
conv2d_83 (Conv2D)              (None, 8, 8, 24)     20736       tf_op_layer_strided_slice_82[0][0
__________________________________________________________________________________________________
conv2d_84 (Conv2D)              (None, 8, 8, 24)     20736       tf_op_layer_strided_slice_83[0][0
__________________________________________________________________________________________________
concatenate_20 (Concatenate)    (None, 8, 8, 96)     0           conv2d_81[0][0]                  
                                                                 conv2d_82[0][0]                  
                                                                 conv2d_83[0][0]                  
                                                                 conv2d_84[0][0]                  
__________________________________________________________________________________________________
batch_normalization_32 (BatchNo (None, 8, 8, 96)     384         concatenate_20[0][0]             
__________________________________________________________________________________________________
reshape_20 (Reshape)            (None, 8, 8, 4, 24)  0           batch_normalization_32[0][0]     
__________________________________________________________________________________________________
permute_10 (Permute)            (None, 8, 8, 24, 4)  0           reshape_20[0][0]                 
__________________________________________________________________________________________________
reshape_21 (Reshape)            (None, 8, 8, 96)     0           permute_10[0][0]                 
__________________________________________________________________________________________________
tf_op_layer_Add_6 (TensorFlowOp (None, 8, 8, 96)     0           reshape_21[0][0]                 
                                                                 tf_op_layer_Add_5[0][0]          
__________________________________________________________________________________________________
tf_op_layer_strided_slice_84 (T (None, 8, 8, 24)     0           tf_op_layer_Add_6[0][0]          
__________________________________________________________________________________________________
tf_op_layer_strided_slice_85 (T (None, 8, 8, 24)     0           tf_op_layer_Add_6[0][0]          
__________________________________________________________________________________________________
tf_op_layer_strided_slice_86 (T (None, 8, 8, 24)     0           tf_op_layer_Add_6[0][0]          
__________________________________________________________________________________________________
tf_op_layer_strided_slice_87 (T (None, 8, 8, 24)     0           tf_op_layer_Add_6[0][0]          
__________________________________________________________________________________________________
conv2d_85 (Conv2D)              (None, 8, 8, 864)    20736       tf_op_layer_strided_slice_84[0][0
__________________________________________________________________________________________________
conv2d_86 (Conv2D)              (None, 8, 8, 864)    20736       tf_op_layer_strided_slice_85[0][0
__________________________________________________________________________________________________
conv2d_87 (Conv2D)              (None, 8, 8, 864)    20736       tf_op_layer_strided_slice_86[0][0
__________________________________________________________________________________________________
conv2d_88 (Conv2D)              (None, 8, 8, 864)    20736       tf_op_layer_strided_slice_87[0][0
__________________________________________________________________________________________________
concatenate_21 (Concatenate)    (None, 8, 8, 3456)   0           conv2d_85[0][0]                  
                                                                 conv2d_86[0][0]                  
                                                                 conv2d_87[0][0]                  
                                                                 conv2d_88[0][0]                  
__________________________________________________________________________________________________
batch_normalization_33 (BatchNo (None, 8, 8, 3456)   13824       concatenate_21[0][0]             
__________________________________________________________________________________________________
re_lu_22 (ReLU)                 (None, 8, 8, 3456)   0           batch_normalization_33[0][0]     
__________________________________________________________________________________________________
depthwise_conv2d_11 (DepthwiseC (None, 8, 8, 3456)   31104       re_lu_22[0][0]                   
__________________________________________________________________________________________________
batch_normalization_34 (BatchNo (None, 8, 8, 3456)   13824       depthwise_conv2d_11[0][0]        
__________________________________________________________________________________________________
re_lu_23 (ReLU)                 (None, 8, 8, 3456)   0           batch_normalization_34[0][0]     
__________________________________________________________________________________________________
tf_op_layer_strided_slice_88 (T (None, 8, 8, 864)    0           re_lu_23[0][0]                   
__________________________________________________________________________________________________
tf_op_layer_strided_slice_89 (T (None, 8, 8, 864)    0           re_lu_23[0][0]                   
__________________________________________________________________________________________________
tf_op_layer_strided_slice_90 (T (None, 8, 8, 864)    0           re_lu_23[0][0]                   
__________________________________________________________________________________________________
tf_op_layer_strided_slice_91 (T (None, 8, 8, 864)    0           re_lu_23[0][0]                   
__________________________________________________________________________________________________
conv2d_89 (Conv2D)              (None, 8, 8, 24)     20736       tf_op_layer_strided_slice_88[0][0
__________________________________________________________________________________________________
conv2d_90 (Conv2D)              (None, 8, 8, 24)     20736       tf_op_layer_strided_slice_89[0][0
__________________________________________________________________________________________________
conv2d_91 (Conv2D)              (None, 8, 8, 24)     20736       tf_op_layer_strided_slice_90[0][0
__________________________________________________________________________________________________
conv2d_92 (Conv2D)              (None, 8, 8, 24)     20736       tf_op_layer_strided_slice_91[0][0
__________________________________________________________________________________________________
concatenate_22 (Concatenate)    (None, 8, 8, 96)     0           conv2d_89[0][0]                  
                                                                 conv2d_90[0][0]                  
                                                                 conv2d_91[0][0]                  
                                                                 conv2d_92[0][0]                  
__________________________________________________________________________________________________
batch_normalization_35 (BatchNo (None, 8, 8, 96)     384         concatenate_22[0][0]             
__________________________________________________________________________________________________
reshape_22 (Reshape)            (None, 8, 8, 4, 24)  0           batch_normalization_35[0][0]     
__________________________________________________________________________________________________
permute_11 (Permute)            (None, 8, 8, 24, 4)  0           reshape_22[0][0]                 
__________________________________________________________________________________________________
reshape_23 (Reshape)            (None, 8, 8, 96)     0           permute_11[0][0]                 
__________________________________________________________________________________________________
tf_op_layer_Add_7 (TensorFlowOp (None, 8, 8, 96)     0           reshape_23[0][0]                 
                                                                 tf_op_layer_Add_6[0][0]          
__________________________________________________________________________________________________
tf_op_layer_strided_slice_92 (T (None, 8, 8, 24)     0           tf_op_layer_Add_7[0][0]          
__________________________________________________________________________________________________
tf_op_layer_strided_slice_93 (T (None, 8, 8, 24)     0           tf_op_layer_Add_7[0][0]          
__________________________________________________________________________________________________
tf_op_layer_strided_slice_94 (T (None, 8, 8, 24)     0           tf_op_layer_Add_7[0][0]          
__________________________________________________________________________________________________
tf_op_layer_strided_slice_95 (T (None, 8, 8, 24)     0           tf_op_layer_Add_7[0][0]          
__________________________________________________________________________________________________
conv2d_93 (Conv2D)              (None, 8, 8, 864)    20736       tf_op_layer_strided_slice_92[0][0
__________________________________________________________________________________________________
conv2d_94 (Conv2D)              (None, 8, 8, 864)    20736       tf_op_layer_strided_slice_93[0][0
__________________________________________________________________________________________________
conv2d_95 (Conv2D)              (None, 8, 8, 864)    20736       tf_op_layer_strided_slice_94[0][0
__________________________________________________________________________________________________
conv2d_96 (Conv2D)              (None, 8, 8, 864)    20736       tf_op_layer_strided_slice_95[0][0
__________________________________________________________________________________________________
concatenate_23 (Concatenate)    (None, 8, 8, 3456)   0           conv2d_93[0][0]                  
                                                                 conv2d_94[0][0]                  
                                                                 conv2d_95[0][0]                  
                                                                 conv2d_96[0][0]                  
__________________________________________________________________________________________________
batch_normalization_36 (BatchNo (None, 8, 8, 3456)   13824       concatenate_23[0][0]             
__________________________________________________________________________________________________
re_lu_24 (ReLU)                 (None, 8, 8, 3456)   0           batch_normalization_36[0][0]     
__________________________________________________________________________________________________
depthwise_conv2d_12 (DepthwiseC (None, 8, 8, 3456)   31104       re_lu_24[0][0]                   
__________________________________________________________________________________________________
batch_normalization_37 (BatchNo (None, 8, 8, 3456)   13824       depthwise_conv2d_12[0][0]        
__________________________________________________________________________________________________
re_lu_25 (ReLU)                 (None, 8, 8, 3456)   0           batch_normalization_37[0][0]     
__________________________________________________________________________________________________
tf_op_layer_strided_slice_96 (T (None, 8, 8, 864)    0           re_lu_25[0][0]                   
__________________________________________________________________________________________________
tf_op_layer_strided_slice_97 (T (None, 8, 8, 864)    0           re_lu_25[0][0]                   
__________________________________________________________________________________________________
tf_op_layer_strided_slice_98 (T (None, 8, 8, 864)    0           re_lu_25[0][0]                   
__________________________________________________________________________________________________
tf_op_layer_strided_slice_99 (T (None, 8, 8, 864)    0           re_lu_25[0][0]                   
__________________________________________________________________________________________________
conv2d_97 (Conv2D)              (None, 8, 8, 24)     20736       tf_op_layer_strided_slice_96[0][0
__________________________________________________________________________________________________
conv2d_98 (Conv2D)              (None, 8, 8, 24)     20736       tf_op_layer_strided_slice_97[0][0
__________________________________________________________________________________________________
conv2d_99 (Conv2D)              (None, 8, 8, 24)     20736       tf_op_layer_strided_slice_98[0][0
__________________________________________________________________________________________________
conv2d_100 (Conv2D)             (None, 8, 8, 24)     20736       tf_op_layer_strided_slice_99[0][0
__________________________________________________________________________________________________
concatenate_24 (Concatenate)    (None, 8, 8, 96)     0           conv2d_97[0][0]                  
                                                                 conv2d_98[0][0]                  
                                                                 conv2d_99[0][0]                  
                                                                 conv2d_100[0][0]                 
__________________________________________________________________________________________________
batch_normalization_38 (BatchNo (None, 8, 8, 96)     384         concatenate_24[0][0]             
__________________________________________________________________________________________________
reshape_24 (Reshape)            (None, 8, 8, 4, 24)  0           batch_normalization_38[0][0]     
__________________________________________________________________________________________________
permute_12 (Permute)            (None, 8, 8, 24, 4)  0           reshape_24[0][0]                 
__________________________________________________________________________________________________
reshape_25 (Reshape)            (None, 8, 8, 96)     0           permute_12[0][0]                 
__________________________________________________________________________________________________
tf_op_layer_Add_8 (TensorFlowOp (None, 8, 8, 96)     0           reshape_25[0][0]                 
                                                                 tf_op_layer_Add_7[0][0]          
__________________________________________________________________________________________________
tf_op_layer_strided_slice_100 ( (None, 8, 8, 24)     0           tf_op_layer_Add_8[0][0]          
__________________________________________________________________________________________________
tf_op_layer_strided_slice_101 ( (None, 8, 8, 24)     0           tf_op_layer_Add_8[0][0]          
__________________________________________________________________________________________________
tf_op_layer_strided_slice_102 ( (None, 8, 8, 24)     0           tf_op_layer_Add_8[0][0]          
__________________________________________________________________________________________________
tf_op_layer_strided_slice_103 ( (None, 8, 8, 24)     0           tf_op_layer_Add_8[0][0]          
__________________________________________________________________________________________________
conv2d_101 (Conv2D)             (None, 8, 8, 864)    20736       tf_op_layer_strided_slice_100[0][
__________________________________________________________________________________________________
conv2d_102 (Conv2D)             (None, 8, 8, 864)    20736       tf_op_layer_strided_slice_101[0][
__________________________________________________________________________________________________
conv2d_103 (Conv2D)             (None, 8, 8, 864)    20736       tf_op_layer_strided_slice_102[0][
__________________________________________________________________________________________________
conv2d_104 (Conv2D)             (None, 8, 8, 864)    20736       tf_op_layer_strided_slice_103[0][
__________________________________________________________________________________________________
concatenate_25 (Concatenate)    (None, 8, 8, 3456)   0           conv2d_101[0][0]                 
                                                                 conv2d_102[0][0]                 
                                                                 conv2d_103[0][0]                 
                                                                 conv2d_104[0][0]                 
__________________________________________________________________________________________________
batch_normalization_39 (BatchNo (None, 8, 8, 3456)   13824       concatenate_25[0][0]             
__________________________________________________________________________________________________
re_lu_26 (ReLU)                 (None, 8, 8, 3456)   0           batch_normalization_39[0][0]     
__________________________________________________________________________________________________
depthwise_conv2d_13 (DepthwiseC (None, 8, 8, 3456)   31104       re_lu_26[0][0]                   
__________________________________________________________________________________________________
batch_normalization_40 (BatchNo (None, 8, 8, 3456)   13824       depthwise_conv2d_13[0][0]        
__________________________________________________________________________________________________
re_lu_27 (ReLU)                 (None, 8, 8, 3456)   0           batch_normalization_40[0][0]     
__________________________________________________________________________________________________
tf_op_layer_strided_slice_104 ( (None, 8, 8, 864)    0           re_lu_27[0][0]                   
__________________________________________________________________________________________________
tf_op_layer_strided_slice_105 ( (None, 8, 8, 864)    0           re_lu_27[0][0]                   
__________________________________________________________________________________________________
tf_op_layer_strided_slice_106 ( (None, 8, 8, 864)    0           re_lu_27[0][0]                   
__________________________________________________________________________________________________
tf_op_layer_strided_slice_107 ( (None, 8, 8, 864)    0           re_lu_27[0][0]                   
__________________________________________________________________________________________________
conv2d_105 (Conv2D)             (None, 8, 8, 24)     20736       tf_op_layer_strided_slice_104[0][
__________________________________________________________________________________________________
conv2d_106 (Conv2D)             (None, 8, 8, 24)     20736       tf_op_layer_strided_slice_105[0][
__________________________________________________________________________________________________
conv2d_107 (Conv2D)             (None, 8, 8, 24)     20736       tf_op_layer_strided_slice_106[0][
__________________________________________________________________________________________________
conv2d_108 (Conv2D)             (None, 8, 8, 24)     20736       tf_op_layer_strided_slice_107[0][
__________________________________________________________________________________________________
concatenate_26 (Concatenate)    (None, 8, 8, 96)     0           conv2d_105[0][0]                 
                                                                 conv2d_106[0][0]                 
                                                                 conv2d_107[0][0]                 
                                                                 conv2d_108[0][0]                 
__________________________________________________________________________________________________
batch_normalization_41 (BatchNo (None, 8, 8, 96)     384         concatenate_26[0][0]             
__________________________________________________________________________________________________
reshape_26 (Reshape)            (None, 8, 8, 4, 24)  0           batch_normalization_41[0][0]     
__________________________________________________________________________________________________
permute_13 (Permute)            (None, 8, 8, 24, 4)  0           reshape_26[0][0]                 
__________________________________________________________________________________________________
reshape_27 (Reshape)            (None, 8, 8, 96)     0           permute_13[0][0]                 
__________________________________________________________________________________________________
tf_op_layer_Add_9 (TensorFlowOp (None, 8, 8, 96)     0           reshape_27[0][0]                 
                                                                 tf_op_layer_Add_8[0][0]          
__________________________________________________________________________________________________
tf_op_layer_strided_slice_108 ( (None, 8, 8, 24)     0           tf_op_layer_Add_9[0][0]          
__________________________________________________________________________________________________
tf_op_layer_strided_slice_109 ( (None, 8, 8, 24)     0           tf_op_layer_Add_9[0][0]          
__________________________________________________________________________________________________
tf_op_layer_strided_slice_110 ( (None, 8, 8, 24)     0           tf_op_layer_Add_9[0][0]          
__________________________________________________________________________________________________
tf_op_layer_strided_slice_111 ( (None, 8, 8, 24)     0           tf_op_layer_Add_9[0][0]          
__________________________________________________________________________________________________
conv2d_109 (Conv2D)             (None, 8, 8, 864)    20736       tf_op_layer_strided_slice_108[0][
__________________________________________________________________________________________________
conv2d_110 (Conv2D)             (None, 8, 8, 864)    20736       tf_op_layer_strided_slice_109[0][
__________________________________________________________________________________________________
conv2d_111 (Conv2D)             (None, 8, 8, 864)    20736       tf_op_layer_strided_slice_110[0][
__________________________________________________________________________________________________
conv2d_112 (Conv2D)             (None, 8, 8, 864)    20736       tf_op_layer_strided_slice_111[0][
__________________________________________________________________________________________________
concatenate_27 (Concatenate)    (None, 8, 8, 3456)   0           conv2d_109[0][0]                 
                                                                 conv2d_110[0][0]                 
                                                                 conv2d_111[0][0]                 
                                                                 conv2d_112[0][0]                 
__________________________________________________________________________________________________
batch_normalization_42 (BatchNo (None, 8, 8, 3456)   13824       concatenate_27[0][0]             
__________________________________________________________________________________________________
re_lu_28 (ReLU)                 (None, 8, 8, 3456)   0           batch_normalization_42[0][0]     
__________________________________________________________________________________________________
depthwise_conv2d_14 (DepthwiseC (None, 8, 8, 3456)   31104       re_lu_28[0][0]                   
__________________________________________________________________________________________________
batch_normalization_43 (BatchNo (None, 8, 8, 3456)   13824       depthwise_conv2d_14[0][0]        
__________________________________________________________________________________________________
re_lu_29 (ReLU)                 (None, 8, 8, 3456)   0           batch_normalization_43[0][0]     
__________________________________________________________________________________________________
tf_op_layer_strided_slice_112 ( (None, 8, 8, 864)    0           re_lu_29[0][0]                   
__________________________________________________________________________________________________
tf_op_layer_strided_slice_113 ( (None, 8, 8, 864)    0           re_lu_29[0][0]                   
__________________________________________________________________________________________________
tf_op_layer_strided_slice_114 ( (None, 8, 8, 864)    0           re_lu_29[0][0]                   
__________________________________________________________________________________________________
tf_op_layer_strided_slice_115 ( (None, 8, 8, 864)    0           re_lu_29[0][0]                   
__________________________________________________________________________________________________
conv2d_113 (Conv2D)             (None, 8, 8, 24)     20736       tf_op_layer_strided_slice_112[0][
__________________________________________________________________________________________________
conv2d_114 (Conv2D)             (None, 8, 8, 24)     20736       tf_op_layer_strided_slice_113[0][
__________________________________________________________________________________________________
conv2d_115 (Conv2D)             (None, 8, 8, 24)     20736       tf_op_layer_strided_slice_114[0][
__________________________________________________________________________________________________
conv2d_116 (Conv2D)             (None, 8, 8, 24)     20736       tf_op_layer_strided_slice_115[0][
__________________________________________________________________________________________________
concatenate_28 (Concatenate)    (None, 8, 8, 96)     0           conv2d_113[0][0]                 
                                                                 conv2d_114[0][0]                 
                                                                 conv2d_115[0][0]                 
                                                                 conv2d_116[0][0]                 
__________________________________________________________________________________________________
batch_normalization_44 (BatchNo (None, 8, 8, 96)     384         concatenate_28[0][0]             
__________________________________________________________________________________________________
reshape_28 (Reshape)            (None, 8, 8, 4, 24)  0           batch_normalization_44[0][0]     
__________________________________________________________________________________________________
permute_14 (Permute)            (None, 8, 8, 24, 4)  0           reshape_28[0][0]                 
__________________________________________________________________________________________________
reshape_29 (Reshape)            (None, 8, 8, 96)     0           permute_14[0][0]                 
__________________________________________________________________________________________________
tf_op_layer_Add_10 (TensorFlowO (None, 8, 8, 96)     0           reshape_29[0][0]                 
                                                                 tf_op_layer_Add_9[0][0]          
__________________________________________________________________________________________________
tf_op_layer_strided_slice_116 ( (None, 8, 8, 24)     0           tf_op_layer_Add_10[0][0]         
__________________________________________________________________________________________________
tf_op_layer_strided_slice_117 ( (None, 8, 8, 24)     0           tf_op_layer_Add_10[0][0]         
__________________________________________________________________________________________________
tf_op_layer_strided_slice_118 ( (None, 8, 8, 24)     0           tf_op_layer_Add_10[0][0]         
__________________________________________________________________________________________________
tf_op_layer_strided_slice_119 ( (None, 8, 8, 24)     0           tf_op_layer_Add_10[0][0]         
__________________________________________________________________________________________________
conv2d_117 (Conv2D)             (None, 8, 8, 864)    20736       tf_op_layer_strided_slice_116[0][
__________________________________________________________________________________________________
conv2d_118 (Conv2D)             (None, 8, 8, 864)    20736       tf_op_layer_strided_slice_117[0][
__________________________________________________________________________________________________
conv2d_119 (Conv2D)             (None, 8, 8, 864)    20736       tf_op_layer_strided_slice_118[0][
__________________________________________________________________________________________________
conv2d_120 (Conv2D)             (None, 8, 8, 864)    20736       tf_op_layer_strided_slice_119[0][
__________________________________________________________________________________________________
concatenate_29 (Concatenate)    (None, 8, 8, 3456)   0           conv2d_117[0][0]                 
                                                                 conv2d_118[0][0]                 
                                                                 conv2d_119[0][0]                 
                                                                 conv2d_120[0][0]                 
__________________________________________________________________________________________________
batch_normalization_45 (BatchNo (None, 8, 8, 3456)   13824       concatenate_29[0][0]             
__________________________________________________________________________________________________
re_lu_30 (ReLU)                 (None, 8, 8, 3456)   0           batch_normalization_45[0][0]     
__________________________________________________________________________________________________
depthwise_conv2d_15 (DepthwiseC (None, 8, 8, 3456)   31104       re_lu_30[0][0]                   
__________________________________________________________________________________________________
batch_normalization_46 (BatchNo (None, 8, 8, 3456)   13824       depthwise_conv2d_15[0][0]        
__________________________________________________________________________________________________
re_lu_31 (ReLU)                 (None, 8, 8, 3456)   0           batch_normalization_46[0][0]     
__________________________________________________________________________________________________
tf_op_layer_strided_slice_120 ( (None, 8, 8, 864)    0           re_lu_31[0][0]                   
__________________________________________________________________________________________________
tf_op_layer_strided_slice_121 ( (None, 8, 8, 864)    0           re_lu_31[0][0]                   
__________________________________________________________________________________________________
tf_op_layer_strided_slice_122 ( (None, 8, 8, 864)    0           re_lu_31[0][0]                   
__________________________________________________________________________________________________
tf_op_layer_strided_slice_123 ( (None, 8, 8, 864)    0           re_lu_31[0][0]                   
__________________________________________________________________________________________________
conv2d_121 (Conv2D)             (None, 8, 8, 24)     20736       tf_op_layer_strided_slice_120[0][
__________________________________________________________________________________________________
conv2d_122 (Conv2D)             (None, 8, 8, 24)     20736       tf_op_layer_strided_slice_121[0][
__________________________________________________________________________________________________
conv2d_123 (Conv2D)             (None, 8, 8, 24)     20736       tf_op_layer_strided_slice_122[0][
__________________________________________________________________________________________________
conv2d_124 (Conv2D)             (None, 8, 8, 24)     20736       tf_op_layer_strided_slice_123[0][
__________________________________________________________________________________________________
concatenate_30 (Concatenate)    (None, 8, 8, 96)     0           conv2d_121[0][0]                 
                                                                 conv2d_122[0][0]                 
                                                                 conv2d_123[0][0]                 
                                                                 conv2d_124[0][0]                 
__________________________________________________________________________________________________
batch_normalization_47 (BatchNo (None, 8, 8, 96)     384         concatenate_30[0][0]             
__________________________________________________________________________________________________
reshape_30 (Reshape)            (None, 8, 8, 4, 24)  0           batch_normalization_47[0][0]     
__________________________________________________________________________________________________
permute_15 (Permute)            (None, 8, 8, 24, 4)  0           reshape_30[0][0]                 
__________________________________________________________________________________________________
reshape_31 (Reshape)            (None, 8, 8, 96)     0           permute_15[0][0]                 
__________________________________________________________________________________________________
tf_op_layer_Add_11 (TensorFlowO (None, 8, 8, 96)     0           reshape_31[0][0]                 
                                                                 tf_op_layer_Add_10[0][0]         
__________________________________________________________________________________________________
tf_op_layer_strided_slice_124 ( (None, 8, 8, 24)     0           tf_op_layer_Add_11[0][0]         
__________________________________________________________________________________________________
tf_op_layer_strided_slice_125 ( (None, 8, 8, 24)     0           tf_op_layer_Add_11[0][0]         
__________________________________________________________________________________________________
tf_op_layer_strided_slice_126 ( (None, 8, 8, 24)     0           tf_op_layer_Add_11[0][0]         
__________________________________________________________________________________________________
tf_op_layer_strided_slice_127 ( (None, 8, 8, 24)     0           tf_op_layer_Add_11[0][0]         
__________________________________________________________________________________________________
conv2d_125 (Conv2D)             (None, 8, 8, 864)    20736       tf_op_layer_strided_slice_124[0][
__________________________________________________________________________________________________
conv2d_126 (Conv2D)             (None, 8, 8, 864)    20736       tf_op_layer_strided_slice_125[0][
__________________________________________________________________________________________________
conv2d_127 (Conv2D)             (None, 8, 8, 864)    20736       tf_op_layer_strided_slice_126[0][
__________________________________________________________________________________________________WARNING:tensorflow:From /home/mohamadol/.local/lib/python3.6/site-packages/tensorflow/python/data/ops/multi_device_iterator_ops.py:601: get_next_as_optional (from tensorflow.python.data.ops.iterator_ops) is deprecated and will be removed in a future version.
Instructions for updating:
…
WARNING:tensorflow:From /home/mohamadol/.local/lib/python3.6/site-packages/tensorflow/python/data/ops/multi_device_iterator_ops.py:601: get_next_as_optional (from tensorflow.python.data.ops.iterator_ops) is deprecated and will be removed in a future version.
Instructions for updating:
Use `tf.data.Iterator.get_next_as_optional()` instead.
2021-06-28 12:05:00.298737: I tensorflow/stream_executor/platform/default/dso_loader.cc:48] Successfully opened dynamic library libcublas.so.10
2021-06-28 12:05:02.006264: I tensorflow/stream_executor/platform/default/dso_loader.cc:48] Successfully opened dynamic library libcudnn.so.7

conv2d_128 (Conv2D)             (None, 8, 8, 864)    20736       tf_op_layer_strided_slice_127[0][
__________________________________________________________________________________________________
concatenate_31 (Concatenate)    (None, 8, 8, 3456)   0           conv2d_125[0][0]                 
                                                                 conv2d_126[0][0]                 
                                                                 conv2d_127[0][0]                 
                                                                 conv2d_128[0][0]                 
__________________________________________________________________________________________________
batch_normalization_48 (BatchNo (None, 8, 8, 3456)   13824       concatenate_31[0][0]             
__________________________________________________________________________________________________
re_lu_32 (ReLU)                 (None, 8, 8, 3456)   0           batch_normalization_48[0][0]     
__________________________________________________________________________________________________
depthwise_conv2d_16 (DepthwiseC (None, 8, 8, 3456)   31104       re_lu_32[0][0]                   
__________________________________________________________________________________________________
batch_normalization_49 (BatchNo (None, 8, 8, 3456)   13824       depthwise_conv2d_16[0][0]        
__________________________________________________________________________________________________
re_lu_33 (ReLU)                 (None, 8, 8, 3456)   0           batch_normalization_49[0][0]     
__________________________________________________________________________________________________
tf_op_layer_strided_slice_128 ( (None, 8, 8, 864)    0           re_lu_33[0][0]                   
__________________________________________________________________________________________________
tf_op_layer_strided_slice_129 ( (None, 8, 8, 864)    0           re_lu_33[0][0]                   
__________________________________________________________________________________________________
tf_op_layer_strided_slice_130 ( (None, 8, 8, 864)    0           re_lu_33[0][0]                   
__________________________________________________________________________________________________
tf_op_layer_strided_slice_131 ( (None, 8, 8, 864)    0           re_lu_33[0][0]                   
__________________________________________________________________________________________________
conv2d_129 (Conv2D)             (None, 8, 8, 40)     34560       tf_op_layer_strided_slice_128[0][
__________________________________________________________________________________________________
conv2d_130 (Conv2D)             (None, 8, 8, 40)     34560       tf_op_layer_strided_slice_129[0][
__________________________________________________________________________________________________
conv2d_131 (Conv2D)             (None, 8, 8, 40)     34560       tf_op_layer_strided_slice_130[0][
__________________________________________________________________________________________________
conv2d_132 (Conv2D)             (None, 8, 8, 40)     34560       tf_op_layer_strided_slice_131[0][
__________________________________________________________________________________________________
concatenate_32 (Concatenate)    (None, 8, 8, 160)    0           conv2d_129[0][0]                 
                                                                 conv2d_130[0][0]                 
                                                                 conv2d_131[0][0]                 
                                                                 conv2d_132[0][0]                 
__________________________________________________________________________________________________
batch_normalization_50 (BatchNo (None, 8, 8, 160)    640         concatenate_32[0][0]             
__________________________________________________________________________________________________
reshape_32 (Reshape)            (None, 8, 8, 4, 40)  0           batch_normalization_50[0][0]     
__________________________________________________________________________________________________
permute_16 (Permute)            (None, 8, 8, 40, 4)  0           reshape_32[0][0]                 
__________________________________________________________________________________________________
reshape_33 (Reshape)            (None, 8, 8, 160)    0           permute_16[0][0]                 
__________________________________________________________________________________________________
tf_op_layer_strided_slice_132 ( (None, 8, 8, 40)     0           reshape_33[0][0]                 
__________________________________________________________________________________________________
tf_op_layer_strided_slice_133 ( (None, 8, 8, 40)     0           reshape_33[0][0]                 
__________________________________________________________________________________________________
tf_op_layer_strided_slice_134 ( (None, 8, 8, 40)     0           reshape_33[0][0]                 
__________________________________________________________________________________________________
tf_op_layer_strided_slice_135 ( (None, 8, 8, 40)     0           reshape_33[0][0]                 
__________________________________________________________________________________________________
conv2d_133 (Conv2D)             (None, 8, 8, 240)    9600        tf_op_layer_strided_slice_132[0][
__________________________________________________________________________________________________
conv2d_134 (Conv2D)             (None, 8, 8, 240)    9600        tf_op_layer_strided_slice_133[0][
__________________________________________________________________________________________________
conv2d_135 (Conv2D)             (None, 8, 8, 240)    9600        tf_op_layer_strided_slice_134[0][
__________________________________________________________________________________________________
conv2d_136 (Conv2D)             (None, 8, 8, 240)    9600        tf_op_layer_strided_slice_135[0][
__________________________________________________________________________________________________
concatenate_33 (Concatenate)    (None, 8, 8, 960)    0           conv2d_133[0][0]                 
                                                                 conv2d_134[0][0]                 
                                                                 conv2d_135[0][0]                 
                                                                 conv2d_136[0][0]                 
__________________________________________________________________________________________________
batch_normalization_51 (BatchNo (None, 8, 8, 960)    3840        concatenate_33[0][0]             
__________________________________________________________________________________________________
re_lu_34 (ReLU)                 (None, 8, 8, 960)    0           batch_normalization_51[0][0]     
__________________________________________________________________________________________________
global_average_pooling2d (Globa (None, 960)          0           re_lu_34[0][0]                   
__________________________________________________________________________________________________
dense (Dense)                   (None, 10)           9610        global_average_pooling2d[0][0]   
==================================================================================================
Total params: 2,725,770
Trainable params: 2,534,730
Non-trainable params: 191,040
__________________________________________________________________________________________________
  1/208 [..............................] - ETA: 0s - loss: 0.3072 - accuracy:
…
