…
2021-04-29 22:53:42.977825: I tensorflow/core/common_runtime/gpu/gpu_device.cc:1402] Created TensorFlow device (/job:localhost/replica:0/task:0/device:GPU:3 with 10040 MB memory) -> physical GPU (device: 3, name: GeForce RTX 2080 Ti, pci bus id: 0000:b2:00.0, compute capability: 7.5)
Model: "functional_1"
__________________________________________________________________________________________________
Layer (type)                    Output Shape         Param #     Connected to                     
==================================================================================================
input_1 (InputLayer)            [(None, 32, 32, 3)]  0                                            
__________________________________________________________________________________________________
conv1 (Conv2D)                  (None, 32, 32, 32)   864         input_1[0][0]                    
__________________________________________________________________________________________________
bn1 (BatchNormalization)        (None, 32, 32, 32)   128         conv1[0][0]                      
__________________________________________________________________________________________________
rl1 (ReLU)                      (None, 32, 32, 32)   0           bn1[0][0]                        
__________________________________________________________________________________________________
tf_op_layer_strided_slice (Tens (None, 32, 32, 8)    0           rl1[0][0]                        
__________________________________________________________________________________________________
tf_op_layer_strided_slice_1 (Te (None, 32, 32, 8)    0           rl1[0][0]                        
__________________________________________________________________________________________________
tf_op_layer_strided_slice_2 (Te (None, 32, 32, 8)    0           rl1[0][0]                        
__________________________________________________________________________________________________
tf_op_layer_strided_slice_3 (Te (None, 32, 32, 8)    0           rl1[0][0]                        
__________________________________________________________________________________________________
conv2g0 (Conv2D)                (None, 32, 32, 8)    64          tf_op_layer_strided_slice[0][0]  
__________________________________________________________________________________________________
conv2g1 (Conv2D)                (None, 32, 32, 8)    64          tf_op_layer_strided_slice_1[0][0]
__________________________________________________________________________________________________
conv2g2 (Conv2D)                (None, 32, 32, 8)    64          tf_op_layer_strided_slice_2[0][0]
__________________________________________________________________________________________________
conv2g3 (Conv2D)                (None, 32, 32, 8)    64          tf_op_layer_strided_slice_3[0][0]
__________________________________________________________________________________________________
conv2groupconc (Concatenate)    (None, 32, 32, 32)   0           conv2g0[0][0]                    
                                                                 conv2g1[0][0]                    
                                                                 conv2g2[0][0]                    
                                                                 conv2g3[0][0]                    
__________________________________________________________________________________________________
bn2 (BatchNormalization)        (None, 32, 32, 32)   128         conv2groupconc[0][0]             
__________________________________________________________________________________________________
rl2 (ReLU)                      (None, 32, 32, 32)   0           bn2[0][0]                        
__________________________________________________________________________________________________
shuff1resh1 (Reshape)           (None, 32, 32, 4, 8) 0           rl2[0][0]                        
__________________________________________________________________________________________________
shuff1perm1 (Permute)           (None, 32, 32, 8, 4) 0           shuff1resh1[0][0]                
__________________________________________________________________________________________________
shuff1resh2 (Reshape)           (None, 32, 32, 32)   0           shuff1perm1[0][0]                
__________________________________________________________________________________________________
conv3 (DepthwiseConv2D)         (None, 32, 32, 32)   288         shuff1resh2[0][0]                
__________________________________________________________________________________________________
bn3 (BatchNormalization)        (None, 32, 32, 32)   128         conv3[0][0]                      
__________________________________________________________________________________________________
tf_op_layer_strided_slice_4 (Te (None, 32, 32, 8)    0           bn3[0][0]                        
__________________________________________________________________________________________________
tf_op_layer_strided_slice_5 (Te (None, 32, 32, 8)    0           bn3[0][0]                        
__________________________________________________________________________________________________
tf_op_layer_strided_slice_6 (Te (None, 32, 32, 8)    0           bn3[0][0]                        
__________________________________________________________________________________________________
tf_op_layer_strided_slice_7 (Te (None, 32, 32, 8)    0           bn3[0][0]                        
__________________________________________________________________________________________________
b1conv1g0 (Conv2D)              (None, 32, 32, 592)  4736        tf_op_layer_strided_slice_4[0][0]
__________________________________________________________________________________________________
b1conv1g1 (Conv2D)              (None, 32, 32, 592)  4736        tf_op_layer_strided_slice_5[0][0]
__________________________________________________________________________________________________
b1conv1g2 (Conv2D)              (None, 32, 32, 592)  4736        tf_op_layer_strided_slice_6[0][0]
__________________________________________________________________________________________________
b1conv1g3 (Conv2D)              (None, 32, 32, 592)  4736        tf_op_layer_strided_slice_7[0][0]
__________________________________________________________________________________________________
b1conv1groupconc (Concatenate)  (None, 32, 32, 2368) 0           b1conv1g0[0][0]                  
                                                                 b1conv1g1[0][0]                  
                                                                 b1conv1g2[0][0]                  
                                                                 b1conv1g3[0][0]                  
__________________________________________________________________________________________________
b1bn1 (BatchNormalization)      (None, 32, 32, 2368) 9472        b1conv1groupconc[0][0]           
__________________________________________________________________________________________________
b1rl1 (ReLU)                    (None, 32, 32, 2368) 0           b1bn1[0][0]                      
__________________________________________________________________________________________________
b1conv2 (DepthwiseConv2D)       (None, 32, 32, 2368) 21312       b1rl1[0][0]                      
__________________________________________________________________________________________________
b1bn2 (BatchNormalization)      (None, 32, 32, 2368) 9472        b1conv2[0][0]                    
__________________________________________________________________________________________________
b1rl2 (ReLU)                    (None, 32, 32, 2368) 0           b1bn2[0][0]                      
__________________________________________________________________________________________________
tf_op_layer_strided_slice_8 (Te (None, 32, 32, 592)  0           b1rl2[0][0]                      
__________________________________________________________________________________________________
tf_op_layer_strided_slice_9 (Te (None, 32, 32, 592)  0           b1rl2[0][0]                      
__________________________________________________________________________________________________
tf_op_layer_strided_slice_10 (T (None, 32, 32, 592)  0           b1rl2[0][0]                      
__________________________________________________________________________________________________
tf_op_layer_strided_slice_11 (T (None, 32, 32, 592)  0           b1rl2[0][0]                      
__________________________________________________________________________________________________
b1conv3g0 (Conv2D)              (None, 32, 32, 8)    4736        tf_op_layer_strided_slice_8[0][0]
__________________________________________________________________________________________________
b1conv3g1 (Conv2D)              (None, 32, 32, 8)    4736        tf_op_layer_strided_slice_9[0][0]
__________________________________________________________________________________________________
b1conv3g2 (Conv2D)              (None, 32, 32, 8)    4736        tf_op_layer_strided_slice_10[0][0
__________________________________________________________________________________________________
b1conv3g3 (Conv2D)              (None, 32, 32, 8)    4736        tf_op_layer_strided_slice_11[0][0
__________________________________________________________________________________________________
b1conv3groupconc (Concatenate)  (None, 32, 32, 32)   0           b1conv3g0[0][0]                  
                                                                 b1conv3g1[0][0]                  
                                                                 b1conv3g2[0][0]                  
                                                                 b1conv3g3[0][0]                  
__________________________________________________________________________________________________
b1bn3 (BatchNormalization)      (None, 32, 32, 32)   128         b1conv3groupconc[0][0]           
__________________________________________________________________________________________________
b1shuff1resh1 (Reshape)         (None, 32, 32, 4, 8) 0           b1bn3[0][0]                      
__________________________________________________________________________________________________
b1shuff1perm1 (Permute)         (None, 32, 32, 8, 4) 0           b1shuff1resh1[0][0]              
__________________________________________________________________________________________________
b1shuff1resh2 (Reshape)         (None, 32, 32, 32)   0           b1shuff1perm1[0][0]              
__________________________________________________________________________________________________
tf_op_layer_strided_slice_12 (T (None, 32, 32, 8)    0           b1shuff1resh2[0][0]              
__________________________________________________________________________________________________
tf_op_layer_strided_slice_13 (T (None, 32, 32, 8)    0           b1shuff1resh2[0][0]              
__________________________________________________________________________________________________
tf_op_layer_strided_slice_14 (T (None, 32, 32, 8)    0           b1shuff1resh2[0][0]              
__________________________________________________________________________________________________
tf_op_layer_strided_slice_15 (T (None, 32, 32, 8)    0           b1shuff1resh2[0][0]              
__________________________________________________________________________________________________
b2conv1g0 (Conv2D)              (None, 32, 32, 592)  4736        tf_op_layer_strided_slice_12[0][0
__________________________________________________________________________________________________
b2conv1g1 (Conv2D)              (None, 32, 32, 592)  4736        tf_op_layer_strided_slice_13[0][0
__________________________________________________________________________________________________
b2conv1g2 (Conv2D)              (None, 32, 32, 592)  4736        tf_op_layer_strided_slice_14[0][0
__________________________________________________________________________________________________
b2conv1g3 (Conv2D)              (None, 32, 32, 592)  4736        tf_op_layer_strided_slice_15[0][0
__________________________________________________________________________________________________
b2conv1groupconc (Concatenate)  (None, 32, 32, 2368) 0           b2conv1g0[0][0]                  
                                                                 b2conv1g1[0][0]                  
                                                                 b2conv1g2[0][0]                  
                                                                 b2conv1g3[0][0]                  
__________________________________________________________________________________________________
b2bn1 (BatchNormalization)      (None, 32, 32, 2368) 9472        b2conv1groupconc[0][0]           
__________________________________________________________________________________________________
b2rl1 (ReLU)                    (None, 32, 32, 2368) 0           b2bn1[0][0]                      
__________________________________________________________________________________________________
b2conv2 (DepthwiseConv2D)       (None, 32, 32, 2368) 21312       b2rl1[0][0]                      
__________________________________________________________________________________________________
b2bn2 (BatchNormalization)      (None, 32, 32, 2368) 9472        b2conv2[0][0]                    
__________________________________________________________________________________________________
b2rl2 (ReLU)                    (None, 32, 32, 2368) 0           b2bn2[0][0]                      
__________________________________________________________________________________________________
tf_op_layer_strided_slice_16 (T (None, 32, 32, 592)  0           b2rl2[0][0]                      
__________________________________________________________________________________________________
tf_op_layer_strided_slice_17 (T (None, 32, 32, 592)  0           b2rl2[0][0]                      
__________________________________________________________________________________________________
tf_op_layer_strided_slice_18 (T (None, 32, 32, 592)  0           b2rl2[0][0]                      
__________________________________________________________________________________________________
tf_op_layer_strided_slice_19 (T (None, 32, 32, 592)  0           b2rl2[0][0]                      
__________________________________________________________________________________________________
b2conv3g0 (Conv2D)              (None, 32, 32, 8)    4736        tf_op_layer_strided_slice_16[0][0
__________________________________________________________________________________________________
b2conv3g1 (Conv2D)              (None, 32, 32, 8)    4736        tf_op_layer_strided_slice_17[0][0
__________________________________________________________________________________________________
b2conv3g2 (Conv2D)              (None, 32, 32, 8)    4736        tf_op_layer_strided_slice_18[0][0
__________________________________________________________________________________________________
b2conv3g3 (Conv2D)              (None, 32, 32, 8)    4736        tf_op_layer_strided_slice_19[0][0
__________________________________________________________________________________________________
b2conv3groupconc (Concatenate)  (None, 32, 32, 32)   0           b2conv3g0[0][0]                  
                                                                 b2conv3g1[0][0]                  
                                                                 b2conv3g2[0][0]                  
                                                                 b2conv3g3[0][0]                  
__________________________________________________________________________________________________
b2bn3 (BatchNormalization)      (None, 32, 32, 32)   128         b2conv3groupconc[0][0]           
__________________________________________________________________________________________________
b2shuff1resh1 (Reshape)         (None, 32, 32, 4, 8) 0           b2bn3[0][0]                      
__________________________________________________________________________________________________
b2shuff1perm1 (Permute)         (None, 32, 32, 8, 4) 0           b2shuff1resh1[0][0]              
__________________________________________________________________________________________________
b2shuff1resh2 (Reshape)         (None, 32, 32, 32)   0           b2shuff1perm1[0][0]              
__________________________________________________________________________________________________
tf_op_layer_b2add1 (TensorFlowO (None, 32, 32, 32)   0           b2shuff1resh2[0][0]              
                                                                 b1shuff1resh2[0][0]              
__________________________________________________________________________________________________
tf_op_layer_strided_slice_20 (T (None, 32, 32, 8)    0           tf_op_layer_b2add1[0][0]         
__________________________________________________________________________________________________
tf_op_layer_strided_slice_21 (T (None, 32, 32, 8)    0           tf_op_layer_b2add1[0][0]         
__________________________________________________________________________________________________
tf_op_layer_strided_slice_22 (T (None, 32, 32, 8)    0           tf_op_layer_b2add1[0][0]         
__________________________________________________________________________________________________
tf_op_layer_strided_slice_23 (T (None, 32, 32, 8)    0           tf_op_layer_b2add1[0][0]         
__________________________________________________________________________________________________
b3conv1g0 (Conv2D)              (None, 32, 32, 592)  4736        tf_op_layer_strided_slice_20[0][0
__________________________________________________________________________________________________
b3conv1g1 (Conv2D)              (None, 32, 32, 592)  4736        tf_op_layer_strided_slice_21[0][0
__________________________________________________________________________________________________
b3conv1g2 (Conv2D)              (None, 32, 32, 592)  4736        tf_op_layer_strided_slice_22[0][0
__________________________________________________________________________________________________
b3conv1g3 (Conv2D)              (None, 32, 32, 592)  4736        tf_op_layer_strided_slice_23[0][0
__________________________________________________________________________________________________
b3conv1groupconc (Concatenate)  (None, 32, 32, 2368) 0           b3conv1g0[0][0]                  
                                                                 b3conv1g1[0][0]                  
                                                                 b3conv1g2[0][0]                  
                                                                 b3conv1g3[0][0]                  
__________________________________________________________________________________________________
b3bn1 (BatchNormalization)      (None, 32, 32, 2368) 9472        b3conv1groupconc[0][0]           
__________________________________________________________________________________________________
b3rl1 (ReLU)                    (None, 32, 32, 2368) 0           b3bn1[0][0]                      
__________________________________________________________________________________________________
b3conv2 (DepthwiseConv2D)       (None, 32, 32, 2368) 21312       b3rl1[0][0]                      
__________________________________________________________________________________________________
b3bn2 (BatchNormalization)      (None, 32, 32, 2368) 9472        b3conv2[0][0]                    
__________________________________________________________________________________________________
b3rl2 (ReLU)                    (None, 32, 32, 2368) 0           b3bn2[0][0]                      
__________________________________________________________________________________________________
tf_op_layer_strided_slice_24 (T (None, 32, 32, 592)  0           b3rl2[0][0]                      
__________________________________________________________________________________________________
tf_op_layer_strided_slice_25 (T (None, 32, 32, 592)  0           b3rl2[0][0]                      
__________________________________________________________________________________________________
tf_op_layer_strided_slice_26 (T (None, 32, 32, 592)  0           b3rl2[0][0]                      
__________________________________________________________________________________________________
tf_op_layer_strided_slice_27 (T (None, 32, 32, 592)  0           b3rl2[0][0]                      
__________________________________________________________________________________________________
b3conv3g0 (Conv2D)              (None, 32, 32, 8)    4736        tf_op_layer_strided_slice_24[0][0
__________________________________________________________________________________________________
b3conv3g1 (Conv2D)              (None, 32, 32, 8)    4736        tf_op_layer_strided_slice_25[0][0
__________________________________________________________________________________________________
b3conv3g2 (Conv2D)              (None, 32, 32, 8)    4736        tf_op_layer_strided_slice_26[0][0
__________________________________________________________________________________________________
b3conv3g3 (Conv2D)              (None, 32, 32, 8)    4736        tf_op_layer_strided_slice_27[0][0
__________________________________________________________________________________________________
b3conv3groupconc (Concatenate)  (None, 32, 32, 32)   0           b3conv3g0[0][0]                  
                                                                 b3conv3g1[0][0]                  
                                                                 b3conv3g2[0][0]                  
                                                                 b3conv3g3[0][0]                  
__________________________________________________________________________________________________
b3bn3 (BatchNormalization)      (None, 32, 32, 32)   128         b3conv3groupconc[0][0]           
__________________________________________________________________________________________________
b3shuff1resh1 (Reshape)         (None, 32, 32, 4, 8) 0           b3bn3[0][0]                      
__________________________________________________________________________________________________
b3shuff1perm1 (Permute)         (None, 32, 32, 8, 4) 0           b3shuff1resh1[0][0]              
__________________________________________________________________________________________________
b3shuff1resh2 (Reshape)         (None, 32, 32, 32)   0           b3shuff1perm1[0][0]              
__________________________________________________________________________________________________
tf_op_layer_b3add1 (TensorFlowO (None, 32, 32, 32)   0           b3shuff1resh2[0][0]              
                                                                 tf_op_layer_b2add1[0][0]         
__________________________________________________________________________________________________
tf_op_layer_strided_slice_28 (T (None, 32, 32, 8)    0           tf_op_layer_b3add1[0][0]         
__________________________________________________________________________________________________
tf_op_layer_strided_slice_29 (T (None, 32, 32, 8)    0           tf_op_layer_b3add1[0][0]         
__________________________________________________________________________________________________
tf_op_layer_strided_slice_30 (T (None, 32, 32, 8)    0           tf_op_layer_b3add1[0][0]         
__________________________________________________________________________________________________
tf_op_layer_strided_slice_31 (T (None, 32, 32, 8)    0           tf_op_layer_b3add1[0][0]         
__________________________________________________________________________________________________
b4conv1g0 (Conv2D)              (None, 32, 32, 592)  4736        tf_op_layer_strided_slice_28[0][0
__________________________________________________________________________________________________
b4conv1g1 (Conv2D)              (None, 32, 32, 592)  4736        tf_op_layer_strided_slice_29[0][0
__________________________________________________________________________________________________
b4conv1g2 (Conv2D)              (None, 32, 32, 592)  4736        tf_op_layer_strided_slice_30[0][0
__________________________________________________________________________________________________
b4conv1g3 (Conv2D)              (None, 32, 32, 592)  4736        tf_op_layer_strided_slice_31[0][0
__________________________________________________________________________________________________
b4conv1groupconc (Concatenate)  (None, 32, 32, 2368) 0           b4conv1g0[0][0]                  
                                                                 b4conv1g1[0][0]                  
                                                                 b4conv1g2[0][0]                  
                                                                 b4conv1g3[0][0]                  
__________________________________________________________________________________________________
b4bn1 (BatchNormalization)      (None, 32, 32, 2368) 9472        b4conv1groupconc[0][0]           
__________________________________________________________________________________________________
b4rl1 (ReLU)                    (None, 32, 32, 2368) 0           b4bn1[0][0]                      
__________________________________________________________________________________________________
b4conv2 (DepthwiseConv2D)       (None, 16, 16, 2368) 21312       b4rl1[0][0]                      
__________________________________________________________________________________________________
b4bn2 (BatchNormalization)      (None, 16, 16, 2368) 9472        b4conv2[0][0]                    
__________________________________________________________________________________________________
b4rl2 (ReLU)                    (None, 16, 16, 2368) 0           b4bn2[0][0]                      
__________________________________________________________________________________________________
tf_op_layer_strided_slice_32 (T (None, 16, 16, 592)  0           b4rl2[0][0]                      
__________________________________________________________________________________________________
tf_op_layer_strided_slice_33 (T (None, 16, 16, 592)  0           b4rl2[0][0]                      
__________________________________________________________________________________________________
tf_op_layer_strided_slice_34 (T (None, 16, 16, 592)  0           b4rl2[0][0]                      
__________________________________________________________________________________________________
tf_op_layer_strided_slice_35 (T (None, 16, 16, 592)  0           b4rl2[0][0]                      
__________________________________________________________________________________________________
b4conv3g0 (Conv2D)              (None, 16, 16, 16)   9472        tf_op_layer_strided_slice_32[0][0
__________________________________________________________________________________________________
b4conv3g1 (Conv2D)              (None, 16, 16, 16)   9472        tf_op_layer_strided_slice_33[0][0
__________________________________________________________________________________________________
b4conv3g2 (Conv2D)              (None, 16, 16, 16)   9472        tf_op_layer_strided_slice_34[0][0
__________________________________________________________________________________________________
b4conv3g3 (Conv2D)              (None, 16, 16, 16)   9472        tf_op_layer_strided_slice_35[0][0
__________________________________________________________________________________________________
b4conv3groupconc (Concatenate)  (None, 16, 16, 64)   0           b4conv3g0[0][0]                  
                                                                 b4conv3g1[0][0]                  
                                                                 b4conv3g2[0][0]                  
                                                                 b4conv3g3[0][0]                  
__________________________________________________________________________________________________
b4bn3 (BatchNormalization)      (None, 16, 16, 64)   256         b4conv3groupconc[0][0]           
__________________________________________________________________________________________________
b4shuff1resh1 (Reshape)         (None, 16, 16, 4, 16 0           b4bn3[0][0]                      
__________________________________________________________________________________________________
b4shuff1perm1 (Permute)         (None, 16, 16, 16, 4 0           b4shuff1resh1[0][0]              
__________________________________________________________________________________________________
b4shuff1resh2 (Reshape)         (None, 16, 16, 64)   0           b4shuff1perm1[0][0]              
__________________________________________________________________________________________________
tf_op_layer_strided_slice_36 (T (None, 16, 16, 16)   0           b4shuff1resh2[0][0]              
__________________________________________________________________________________________________
tf_op_layer_strided_slice_37 (T (None, 16, 16, 16)   0           b4shuff1resh2[0][0]              
__________________________________________________________________________________________________
tf_op_layer_strided_slice_38 (T (None, 16, 16, 16)   0           b4shuff1resh2[0][0]              
__________________________________________________________________________________________________
tf_op_layer_strided_slice_39 (T (None, 16, 16, 16)   0           b4shuff1resh2[0][0]              
__________________________________________________________________________________________________
b5conv1g0 (Conv2D)              (None, 16, 16, 592)  9472        tf_op_layer_strided_slice_36[0][0
__________________________________________________________________________________________________
b5conv1g1 (Conv2D)              (None, 16, 16, 592)  9472        tf_op_layer_strided_slice_37[0][0
__________________________________________________________________________________________________
b5conv1g2 (Conv2D)              (None, 16, 16, 592)  9472        tf_op_layer_strided_slice_38[0][0
__________________________________________________________________________________________________
b5conv1g3 (Conv2D)              (None, 16, 16, 592)  9472        tf_op_layer_strided_slice_39[0][0
__________________________________________________________________________________________________
b5conv1groupconc (Concatenate)  (None, 16, 16, 2368) 0           b5conv1g0[0][0]                  
                                                                 b5conv1g1[0][0]                  
                                                                 b5conv1g2[0][0]                  
                                                                 b5conv1g3[0][0]                  
__________________________________________________________________________________________________
b5bn1 (BatchNormalization)      (None, 16, 16, 2368) 9472        b5conv1groupconc[0][0]           
__________________________________________________________________________________________________
b5rl1 (ReLU)                    (None, 16, 16, 2368) 0           b5bn1[0][0]                      
__________________________________________________________________________________________________
b5conv2 (DepthwiseConv2D)       (None, 16, 16, 2368) 21312       b5rl1[0][0]                      
__________________________________________________________________________________________________
b5bn2 (BatchNormalization)      (None, 16, 16, 2368) 9472        b5conv2[0][0]                    
__________________________________________________________________________________________________
b5rl2 (ReLU)                    (None, 16, 16, 2368) 0           b5bn2[0][0]                      
__________________________________________________________________________________________________
tf_op_layer_strided_slice_40 (T (None, 16, 16, 592)  0           b5rl2[0][0]                      
__________________________________________________________________________________________________
tf_op_layer_strided_slice_41 (T (None, 16, 16, 592)  0           b5rl2[0][0]                      
__________________________________________________________________________________________________
tf_op_layer_strided_slice_42 (T (None, 16, 16, 592)  0           b5rl2[0][0]                      
__________________________________________________________________________________________________
tf_op_layer_strided_slice_43 (T (None, 16, 16, 592)  0           b5rl2[0][0]                      
__________________________________________________________________________________________________
b5conv3g0 (Conv2D)              (None, 16, 16, 16)   9472        tf_op_layer_strided_slice_40[0][0
__________________________________________________________________________________________________
b5conv3g1 (Conv2D)              (None, 16, 16, 16)   9472        tf_op_layer_strided_slice_41[0][0
__________________________________________________________________________________________________
b5conv3g2 (Conv2D)              (None, 16, 16, 16)   9472        tf_op_layer_strided_slice_42[0][0
__________________________________________________________________________________________________
b5conv3g3 (Conv2D)              (None, 16, 16, 16)   9472        tf_op_layer_strided_slice_43[0][0
__________________________________________________________________________________________________
b5conv3groupconc (Concatenate)  (None, 16, 16, 64)   0           b5conv3g0[0][0]                  
                                                                 b5conv3g1[0][0]                  
                                                                 b5conv3g2[0][0]                  
                                                                 b5conv3g3[0][0]                  
__________________________________________________________________________________________________
b5bn3 (BatchNormalization)      (None, 16, 16, 64)   256         b5conv3groupconc[0][0]           
__________________________________________________________________________________________________
b5shuff1resh1 (Reshape)         (None, 16, 16, 4, 16 0           b5bn3[0][0]                      
__________________________________________________________________________________________________
b5shuff1perm1 (Permute)         (None, 16, 16, 16, 4 0           b5shuff1resh1[0][0]              
__________________________________________________________________________________________________
b5shuff1resh2 (Reshape)         (None, 16, 16, 64)   0           b5shuff1perm1[0][0]              
__________________________________________________________________________________________________
tf_op_layer_b5add1 (TensorFlowO (None, 16, 16, 64)   0           b5shuff1resh2[0][0]              
                                                                 b4shuff1resh2[0][0]              
__________________________________________________________________________________________________
tf_op_layer_strided_slice_44 (T (None, 16, 16, 16)   0           tf_op_layer_b5add1[0][0]         
__________________________________________________________________________________________________
tf_op_layer_strided_slice_45 (T (None, 16, 16, 16)   0           tf_op_layer_b5add1[0][0]         
__________________________________________________________________________________________________
tf_op_layer_strided_slice_46 (T (None, 16, 16, 16)   0           tf_op_layer_b5add1[0][0]         
__________________________________________________________________________________________________
tf_op_layer_strided_slice_47 (T (None, 16, 16, 16)   0           tf_op_layer_b5add1[0][0]         
__________________________________________________________________________________________________
b6conv1g0 (Conv2D)              (None, 16, 16, 592)  9472        tf_op_layer_strided_slice_44[0][0
__________________________________________________________________________________________________
b6conv1g1 (Conv2D)              (None, 16, 16, 592)  9472        tf_op_layer_strided_slice_45[0][0
__________________________________________________________________________________________________
b6conv1g2 (Conv2D)              (None, 16, 16, 592)  9472        tf_op_layer_strided_slice_46[0][0
__________________________________________________________________________________________________
b6conv1g3 (Conv2D)              (None, 16, 16, 592)  9472        tf_op_layer_strided_slice_47[0][0
__________________________________________________________________________________________________
b6conv1groupconc (Concatenate)  (None, 16, 16, 2368) 0           b6conv1g0[0][0]                  
                                                                 b6conv1g1[0][0]                  
                                                                 b6conv1g2[0][0]                  
                                                                 b6conv1g3[0][0]                  
__________________________________________________________________________________________________
b6bn1 (BatchNormalization)      (None, 16, 16, 2368) 9472        b6conv1groupconc[0][0]           
__________________________________________________________________________________________________
b6rl1 (ReLU)                    (None, 16, 16, 2368) 0           b6bn1[0][0]                      
__________________________________________________________________________________________________
b6conv2 (DepthwiseConv2D)       (None, 16, 16, 2368) 21312       b6rl1[0][0]                      
__________________________________________________________________________________________________
b6bn2 (BatchNormalization)      (None, 16, 16, 2368) 9472        b6conv2[0][0]                    
__________________________________________________________________________________________________
b6rl2 (ReLU)                    (None, 16, 16, 2368) 0           b6bn2[0][0]                      
__________________________________________________________________________________________________
tf_op_layer_strided_slice_48 (T (None, 16, 16, 592)  0           b6rl2[0][0]                      
__________________________________________________________________________________________________
tf_op_layer_strided_slice_49 (T (None, 16, 16, 592)  0           b6rl2[0][0]                      
__________________________________________________________________________________________________
tf_op_layer_strided_slice_50 (T (None, 16, 16, 592)  0           b6rl2[0][0]                      
__________________________________________________________________________________________________
tf_op_layer_strided_slice_51 (T (None, 16, 16, 592)  0           b6rl2[0][0]                      
__________________________________________________________________________________________________
b6conv3g0 (Conv2D)              (None, 16, 16, 16)   9472        tf_op_layer_strided_slice_48[0][0
__________________________________________________________________________________________________
b6conv3g1 (Conv2D)              (None, 16, 16, 16)   9472        tf_op_layer_strided_slice_49[0][0
__________________________________________________________________________________________________
b6conv3g2 (Conv2D)              (None, 16, 16, 16)   9472        tf_op_layer_strided_slice_50[0][0
__________________________________________________________________________________________________
b6conv3g3 (Conv2D)              (None, 16, 16, 16)   9472        tf_op_layer_strided_slice_51[0][0
__________________________________________________________________________________________________
b6conv3groupconc (Concatenate)  (None, 16, 16, 64)   0           b6conv3g0[0][0]                  
                                                                 b6conv3g1[0][0]                  
                                                                 b6conv3g2[0][0]                  
                                                                 b6conv3g3[0][0]                  
__________________________________________________________________________________________________
b6bn3 (BatchNormalization)      (None, 16, 16, 64)   256         b6conv3groupconc[0][0]           
__________________________________________________________________________________________________
b6shuff1resh1 (Reshape)         (None, 16, 16, 4, 16 0           b6bn3[0][0]                      
__________________________________________________________________________________________________
b6shuff1perm1 (Permute)         (None, 16, 16, 16, 4 0           b6shuff1resh1[0][0]              
__________________________________________________________________________________________________
b6shuff1resh2 (Reshape)         (None, 16, 16, 64)   0           b6shuff1perm1[0][0]              
__________________________________________________________________________________________________
tf_op_layer_b6add1 (TensorFlowO (None, 16, 16, 64)   0           b6shuff1resh2[0][0]              
                                                                 tf_op_layer_b5add1[0][0]         
__________________________________________________________________________________________________
tf_op_layer_strided_slice_52 (T (None, 16, 16, 16)   0           tf_op_layer_b6add1[0][0]         
__________________________________________________________________________________________________
tf_op_layer_strided_slice_53 (T (None, 16, 16, 16)   0           tf_op_layer_b6add1[0][0]         
__________________________________________________________________________________________________
tf_op_layer_strided_slice_54 (T (None, 16, 16, 16)   0           tf_op_layer_b6add1[0][0]         
__________________________________________________________________________________________________
tf_op_layer_strided_slice_55 (T (None, 16, 16, 16)   0           tf_op_layer_b6add1[0][0]         
__________________________________________________________________________________________________
b7conv1g0 (Conv2D)              (None, 16, 16, 592)  9472        tf_op_layer_strided_slice_52[0][0
__________________________________________________________________________________________________
b7conv1g1 (Conv2D)              (None, 16, 16, 592)  9472        tf_op_layer_strided_slice_53[0][0
__________________________________________________________________________________________________
b7conv1g2 (Conv2D)              (None, 16, 16, 592)  9472        tf_op_layer_strided_slice_54[0][0
__________________________________________________________________________________________________
b7conv1g3 (Conv2D)              (None, 16, 16, 592)  9472        tf_op_layer_strided_slice_55[0][0
__________________________________________________________________________________________________
b7conv1groupconc (Concatenate)  (None, 16, 16, 2368) 0           b7conv1g0[0][0]                  
                                                                 b7conv1g1[0][0]                  
                                                                 b7conv1g2[0][0]                  
                                                                 b7conv1g3[0][0]                  
__________________________________________________________________________________________________
b7bn1 (BatchNormalization)      (None, 16, 16, 2368) 9472        b7conv1groupconc[0][0]           
__________________________________________________________________________________________________
b7rl1 (ReLU)                    (None, 16, 16, 2368) 0           b7bn1[0][0]                      
__________________________________________________________________________________________________
b7conv2 (DepthwiseConv2D)       (None, 16, 16, 2368) 21312       b7rl1[0][0]                      
__________________________________________________________________________________________________
b7bn2 (BatchNormalization)      (None, 16, 16, 2368) 9472        b7conv2[0][0]                    
__________________________________________________________________________________________________
b7rl2 (ReLU)                    (None, 16, 16, 2368) 0           b7bn2[0][0]                      
__________________________________________________________________________________________________
tf_op_layer_strided_slice_56 (T (None, 16, 16, 592)  0           b7rl2[0][0]                      
__________________________________________________________________________________________________
tf_op_layer_strided_slice_57 (T (None, 16, 16, 592)  0           b7rl2[0][0]                      
__________________________________________________________________________________________________
tf_op_layer_strided_slice_58 (T (None, 16, 16, 592)  0           b7rl2[0][0]                      
__________________________________________________________________________________________________
tf_op_layer_strided_slice_59 (T (None, 16, 16, 592)  0           b7rl2[0][0]                      
__________________________________________________________________________________________________
b7conv3g0 (Conv2D)              (None, 16, 16, 16)   9472        tf_op_layer_strided_slice_56[0][0
__________________________________________________________________________________________________
b7conv3g1 (Conv2D)              (None, 16, 16, 16)   9472        tf_op_layer_strided_slice_57[0][0
__________________________________________________________________________________________________
b7conv3g2 (Conv2D)              (None, 16, 16, 16)   9472        tf_op_layer_strided_slice_58[0][0
__________________________________________________________________________________________________
b7conv3g3 (Conv2D)              (None, 16, 16, 16)   9472        tf_op_layer_strided_slice_59[0][0
__________________________________________________________________________________________________
b7conv3groupconc (Concatenate)  (None, 16, 16, 64)   0           b7conv3g0[0][0]                  
                                                                 b7conv3g1[0][0]                  
                                                                 b7conv3g2[0][0]                  
                                                                 b7conv3g3[0][0]                  
__________________________________________________________________________________________________
b7bn3 (BatchNormalization)      (None, 16, 16, 64)   256         b7conv3groupconc[0][0]           
__________________________________________________________________________________________________
b7shuff1resh1 (Reshape)         (None, 16, 16, 4, 16 0           b7bn3[0][0]                      
__________________________________________________________________________________________________
b7shuff1perm1 (Permute)         (None, 16, 16, 16, 4 0           b7shuff1resh1[0][0]              
__________________________________________________________________________________________________
b7shuff1resh2 (Reshape)         (None, 16, 16, 64)   0           b7shuff1perm1[0][0]              
__________________________________________________________________________________________________
tf_op_layer_b7add1 (TensorFlowO (None, 16, 16, 64)   0           b7shuff1resh2[0][0]              
                                                                 tf_op_layer_b6add1[0][0]         
__________________________________________________________________________________________________
tf_op_layer_strided_slice_60 (T (None, 16, 16, 16)   0           tf_op_layer_b7add1[0][0]         
__________________________________________________________________________________________________
tf_op_layer_strided_slice_61 (T (None, 16, 16, 16)   0           tf_op_layer_b7add1[0][0]         
__________________________________________________________________________________________________
tf_op_layer_strided_slice_62 (T (None, 16, 16, 16)   0           tf_op_layer_b7add1[0][0]         
__________________________________________________________________________________________________
tf_op_layer_strided_slice_63 (T (None, 16, 16, 16)   0           tf_op_layer_b7add1[0][0]         
__________________________________________________________________________________________________
b8conv1g0 (Conv2D)              (None, 16, 16, 592)  9472        tf_op_layer_strided_slice_60[0][0
__________________________________________________________________________________________________
b8conv1g1 (Conv2D)              (None, 16, 16, 592)  9472        tf_op_layer_strided_slice_61[0][0
__________________________________________________________________________________________________
b8conv1g2 (Conv2D)              (None, 16, 16, 592)  9472        tf_op_layer_strided_slice_62[0][0
__________________________________________________________________________________________________
b8conv1g3 (Conv2D)              (None, 16, 16, 592)  9472        tf_op_layer_strided_slice_63[0][0
__________________________________________________________________________________________________
b8conv1groupconc (Concatenate)  (None, 16, 16, 2368) 0           b8conv1g0[0][0]                  
                                                                 b8conv1g1[0][0]                  
                                                                 b8conv1g2[0][0]                  
                                                                 b8conv1g3[0][0]                  
__________________________________________________________________________________________________
b8bn1 (BatchNormalization)      (None, 16, 16, 2368) 9472        b8conv1groupconc[0][0]           
__________________________________________________________________________________________________
b8rl1 (ReLU)                    (None, 16, 16, 2368) 0           b8bn1[0][0]                      
__________________________________________________________________________________________________
b8conv2 (DepthwiseConv2D)       (None, 8, 8, 2368)   21312       b8rl1[0][0]                      
__________________________________________________________________________________________________
b8bn2 (BatchNormalization)      (None, 8, 8, 2368)   9472        b8conv2[0][0]                    
__________________________________________________________________________________________________
b8rl2 (ReLU)                    (None, 8, 8, 2368)   0           b8bn2[0][0]                      
__________________________________________________________________________________________________
tf_op_layer_strided_slice_64 (T (None, 8, 8, 592)    0           b8rl2[0][0]                      
__________________________________________________________________________________________________
tf_op_layer_strided_slice_65 (T (None, 8, 8, 592)    0           b8rl2[0][0]                      
__________________________________________________________________________________________________
tf_op_layer_strided_slice_66 (T (None, 8, 8, 592)    0           b8rl2[0][0]                      
__________________________________________________________________________________________________
tf_op_layer_strided_slice_67 (T (None, 8, 8, 592)    0           b8rl2[0][0]                      
__________________________________________________________________________________________________
b8conv3g0 (Conv2D)              (None, 8, 8, 24)     14208       tf_op_layer_strided_slice_64[0][0
__________________________________________________________________________________________________
b8conv3g1 (Conv2D)              (None, 8, 8, 24)     14208       tf_op_layer_strided_slice_65[0][0
__________________________________________________________________________________________________
b8conv3g2 (Conv2D)              (None, 8, 8, 24)     14208       tf_op_layer_strided_slice_66[0][0
__________________________________________________________________________________________________
b8conv3g3 (Conv2D)              (None, 8, 8, 24)     14208       tf_op_layer_strided_slice_67[0][0
__________________________________________________________________________________________________
b8conv3groupconc (Concatenate)  (None, 8, 8, 96)     0           b8conv3g0[0][0]                  
                                                                 b8conv3g1[0][0]                  
                                                                 b8conv3g2[0][0]                  
                                                                 b8conv3g3[0][0]                  
__________________________________________________________________________________________________
b8bn3 (BatchNormalization)      (None, 8, 8, 96)     384         b8conv3groupconc[0][0]           
__________________________________________________________________________________________________
b8shuff1resh1 (Reshape)         (None, 8, 8, 4, 24)  0           b8bn3[0][0]                      
__________________________________________________________________________________________________
b8shuff1perm1 (Permute)         (None, 8, 8, 24, 4)  0           b8shuff1resh1[0][0]              
__________________________________________________________________________________________________
b8shuff1resh2 (Reshape)         (None, 8, 8, 96)     0           b8shuff1perm1[0][0]              
__________________________________________________________________________________________________
tf_op_layer_strided_slice_68 (T (None, 8, 8, 24)     0           b8shuff1resh2[0][0]              
__________________________________________________________________________________________________
tf_op_layer_strided_slice_69 (T (None, 8, 8, 24)     0           b8shuff1resh2[0][0]              
__________________________________________________________________________________________________
tf_op_layer_strided_slice_70 (T (None, 8, 8, 24)     0           b8shuff1resh2[0][0]              
__________________________________________________________________________________________________
tf_op_layer_strided_slice_71 (T (None, 8, 8, 24)     0           b8shuff1resh2[0][0]              
__________________________________________________________________________________________________
b9conv1g0 (Conv2D)              (None, 8, 8, 864)    20736       tf_op_layer_strided_slice_68[0][0
__________________________________________________________________________________________________
b9conv1g1 (Conv2D)              (None, 8, 8, 864)    20736       tf_op_layer_strided_slice_69[0][0
__________________________________________________________________________________________________
b9conv1g2 (Conv2D)              (None, 8, 8, 864)    20736       tf_op_layer_strided_slice_70[0][0
__________________________________________________________________________________________________
b9conv1g3 (Conv2D)              (None, 8, 8, 864)    20736       tf_op_layer_strided_slice_71[0][0
__________________________________________________________________________________________________
b9conv1groupconc (Concatenate)  (None, 8, 8, 3456)   0           b9conv1g0[0][0]                  
                                                                 b9conv1g1[0][0]                  
                                                                 b9conv1g2[0][0]                  
                                                                 b9conv1g3[0][0]                  
__________________________________________________________________________________________________
b9bn1 (BatchNormalization)      (None, 8, 8, 3456)   13824       b9conv1groupconc[0][0]           
__________________________________________________________________________________________________
b9rl1 (ReLU)                    (None, 8, 8, 3456)   0           b9bn1[0][0]                      
__________________________________________________________________________________________________
b9conv2 (DepthwiseConv2D)       (None, 8, 8, 3456)   31104       b9rl1[0][0]                      
__________________________________________________________________________________________________
b9bn2 (BatchNormalization)      (None, 8, 8, 3456)   13824       b9conv2[0][0]                    
__________________________________________________________________________________________________
b9rl2 (ReLU)                    (None, 8, 8, 3456)   0           b9bn2[0][0]                      
__________________________________________________________________________________________________
tf_op_layer_strided_slice_72 (T (None, 8, 8, 864)    0           b9rl2[0][0]                      
__________________________________________________________________________________________________
tf_op_layer_strided_slice_73 (T (None, 8, 8, 864)    0           b9rl2[0][0]                      
__________________________________________________________________________________________________
tf_op_layer_strided_slice_74 (T (None, 8, 8, 864)    0           b9rl2[0][0]                      
__________________________________________________________________________________________________
tf_op_layer_strided_slice_75 (T (None, 8, 8, 864)    0           b9rl2[0][0]                      
__________________________________________________________________________________________________
b9conv3g0 (Conv2D)              (None, 8, 8, 24)     20736       tf_op_layer_strided_slice_72[0][0
__________________________________________________________________________________________________
b9conv3g1 (Conv2D)              (None, 8, 8, 24)     20736       tf_op_layer_strided_slice_73[0][0
__________________________________________________________________________________________________
b9conv3g2 (Conv2D)              (None, 8, 8, 24)     20736       tf_op_layer_strided_slice_74[0][0
__________________________________________________________________________________________________
b9conv3g3 (Conv2D)              (None, 8, 8, 24)     20736       tf_op_layer_strided_slice_75[0][0
__________________________________________________________________________________________________
b9conv3groupconc (Concatenate)  (None, 8, 8, 96)     0           b9conv3g0[0][0]                  
                                                                 b9conv3g1[0][0]                  
                                                                 b9conv3g2[0][0]                  
                                                                 b9conv3g3[0][0]                  
__________________________________________________________________________________________________
b9bn3 (BatchNormalization)      (None, 8, 8, 96)     384         b9conv3groupconc[0][0]           
__________________________________________________________________________________________________
b9shuff1resh1 (Reshape)         (None, 8, 8, 4, 24)  0           b9bn3[0][0]                      
__________________________________________________________________________________________________
b9shuff1perm1 (Permute)         (None, 8, 8, 24, 4)  0           b9shuff1resh1[0][0]              
__________________________________________________________________________________________________
b9shuff1resh2 (Reshape)         (None, 8, 8, 96)     0           b9shuff1perm1[0][0]              
__________________________________________________________________________________________________
tf_op_layer_b9add1 (TensorFlowO (None, 8, 8, 96)     0           b9shuff1resh2[0][0]              
                                                                 b8shuff1resh2[0][0]              
__________________________________________________________________________________________________
tf_op_layer_strided_slice_76 (T (None, 8, 8, 24)     0           tf_op_layer_b9add1[0][0]         
__________________________________________________________________________________________________
tf_op_layer_strided_slice_77 (T (None, 8, 8, 24)     0           tf_op_layer_b9add1[0][0]         
__________________________________________________________________________________________________
tf_op_layer_strided_slice_78 (T (None, 8, 8, 24)     0           tf_op_layer_b9add1[0][0]         
__________________________________________________________________________________________________
tf_op_layer_strided_slice_79 (T (None, 8, 8, 24)     0           tf_op_layer_b9add1[0][0]         
__________________________________________________________________________________________________
b10conv1g0 (Conv2D)             (None, 8, 8, 864)    20736       tf_op_layer_strided_slice_76[0][0
__________________________________________________________________________________________________
b10conv1g1 (Conv2D)             (None, 8, 8, 864)    20736       tf_op_layer_strided_slice_77[0][0
__________________________________________________________________________________________________
b10conv1g2 (Conv2D)             (None, 8, 8, 864)    20736       tf_op_layer_strided_slice_78[0][0
__________________________________________________________________________________________________
b10conv1g3 (Conv2D)             (None, 8, 8, 864)    20736       tf_op_layer_strided_slice_79[0][0
__________________________________________________________________________________________________
b10conv1groupconc (Concatenate) (None, 8, 8, 3456)   0           b10conv1g0[0][0]                 
                                                                 b10conv1g1[0][0]                 
                                                                 b10conv1g2[0][0]                 
                                                                 b10conv1g3[0][0]                 
__________________________________________________________________________________________________
b10bn1 (BatchNormalization)     (None, 8, 8, 3456)   13824       b10conv1groupconc[0][0]          
__________________________________________________________________________________________________
b10rl1 (ReLU)                   (None, 8, 8, 3456)   0           b10bn1[0][0]                     
__________________________________________________________________________________________________
b10conv2 (DepthwiseConv2D)      (None, 8, 8, 3456)   31104       b10rl1[0][0]                     
__________________________________________________________________________________________________
b10bn2 (BatchNormalization)     (None, 8, 8, 3456)   13824       b10conv2[0][0]                   
__________________________________________________________________________________________________
b10rl2 (ReLU)                   (None, 8, 8, 3456)   0           b10bn2[0][0]                     
__________________________________________________________________________________________________
tf_op_layer_strided_slice_80 (T (None, 8, 8, 864)    0           b10rl2[0][0]                     
__________________________________________________________________________________________________
tf_op_layer_strided_slice_81 (T (None, 8, 8, 864)    0           b10rl2[0][0]                     
__________________________________________________________________________________________________
tf_op_layer_strided_slice_82 (T (None, 8, 8, 864)    0           b10rl2[0][0]                     
__________________________________________________________________________________________________
tf_op_layer_strided_slice_83 (T (None, 8, 8, 864)    0           b10rl2[0][0]                     
__________________________________________________________________________________________________
b10conv3g0 (Conv2D)             (None, 8, 8, 24)     20736       tf_op_layer_strided_slice_80[0][0
__________________________________________________________________________________________________
b10conv3g1 (Conv2D)             (None, 8, 8, 24)     20736       tf_op_layer_strided_slice_81[0][0
__________________________________________________________________________________________________
b10conv3g2 (Conv2D)             (None, 8, 8, 24)     20736       tf_op_layer_strided_slice_82[0][0
__________________________________________________________________________________________________
b10conv3g3 (Conv2D)             (None, 8, 8, 24)     20736       tf_op_layer_strided_slice_83[0][0
__________________________________________________________________________________________________
b10conv3groupconc (Concatenate) (None, 8, 8, 96)     0           b10conv3g0[0][0]                 
                                                                 b10conv3g1[0][0]                 
                                                                 b10conv3g2[0][0]                 
                                                                 b10conv3g3[0][0]                 
__________________________________________________________________________________________________
b10bn3 (BatchNormalization)     (None, 8, 8, 96)     384         b10conv3groupconc[0][0]          
__________________________________________________________________________________________________
b10shuff1resh1 (Reshape)        (None, 8, 8, 4, 24)  0           b10bn3[0][0]                     
__________________________________________________________________________________________________
b10shuff1perm1 (Permute)        (None, 8, 8, 24, 4)  0           b10shuff1resh1[0][0]             
__________________________________________________________________________________________________
b10shuff1resh2 (Reshape)        (None, 8, 8, 96)     0           b10shuff1perm1[0][0]             
__________________________________________________________________________________________________
tf_op_layer_b10add1 (TensorFlow (None, 8, 8, 96)     0           b10shuff1resh2[0][0]             
                                                                 tf_op_layer_b9add1[0][0]         
__________________________________________________________________________________________________
tf_op_layer_strided_slice_84 (T (None, 8, 8, 24)     0           tf_op_layer_b10add1[0][0]        
__________________________________________________________________________________________________
tf_op_layer_strided_slice_85 (T (None, 8, 8, 24)     0           tf_op_layer_b10add1[0][0]        
__________________________________________________________________________________________________
tf_op_layer_strided_slice_86 (T (None, 8, 8, 24)     0           tf_op_layer_b10add1[0][0]        
__________________________________________________________________________________________________
tf_op_layer_strided_slice_87 (T (None, 8, 8, 24)     0           tf_op_layer_b10add1[0][0]        
__________________________________________________________________________________________________
b11conv1g0 (Conv2D)             (None, 8, 8, 864)    20736       tf_op_layer_strided_slice_84[0][0
__________________________________________________________________________________________________
b11conv1g1 (Conv2D)             (None, 8, 8, 864)    20736       tf_op_layer_strided_slice_85[0][0
__________________________________________________________________________________________________
b11conv1g2 (Conv2D)             (None, 8, 8, 864)    20736       tf_op_layer_strided_slice_86[0][0
__________________________________________________________________________________________________
b11conv1g3 (Conv2D)             (None, 8, 8, 864)    20736       tf_op_layer_strided_slice_87[0][0
__________________________________________________________________________________________________
b11conv1groupconc (Concatenate) (None, 8, 8, 3456)   0           b11conv1g0[0][0]                 
                                                                 b11conv1g1[0][0]                 
                                                                 b11conv1g2[0][0]                 
                                                                 b11conv1g3[0][0]                 
__________________________________________________________________________________________________
b11bn1 (BatchNormalization)     (None, 8, 8, 3456)   13824       b11conv1groupconc[0][0]          
__________________________________________________________________________________________________
b11rl1 (ReLU)                   (None, 8, 8, 3456)   0           b11bn1[0][0]                     
__________________________________________________________________________________________________
b11conv2 (DepthwiseConv2D)      (None, 8, 8, 3456)   31104       b11rl1[0][0]                     
__________________________________________________________________________________________________
b11bn2 (BatchNormalization)     (None, 8, 8, 3456)   13824       b11conv2[0][0]                   
__________________________________________________________________________________________________
b11rl2 (ReLU)                   (None, 8, 8, 3456)   0           b11bn2[0][0]                     
__________________________________________________________________________________________________
tf_op_layer_strided_slice_88 (T (None, 8, 8, 864)    0           b11rl2[0][0]                     
__________________________________________________________________________________________________
tf_op_layer_strided_slice_89 (T (None, 8, 8, 864)    0           b11rl2[0][0]                     
__________________________________________________________________________________________________
tf_op_layer_strided_slice_90 (T (None, 8, 8, 864)    0           b11rl2[0][0]                     
__________________________________________________________________________________________________
tf_op_layer_strided_slice_91 (T (None, 8, 8, 864)    0           b11rl2[0][0]                     
__________________________________________________________________________________________________
b11conv3g0 (Conv2D)             (None, 8, 8, 24)     20736       tf_op_layer_strided_slice_88[0][0
__________________________________________________________________________________________________
b11conv3g1 (Conv2D)             (None, 8, 8, 24)     20736       tf_op_layer_strided_slice_89[0][0
__________________________________________________________________________________________________
b11conv3g2 (Conv2D)             (None, 8, 8, 24)     20736       tf_op_layer_strided_slice_90[0][0
__________________________________________________________________________________________________
b11conv3g3 (Conv2D)             (None, 8, 8, 24)     20736       tf_op_layer_strided_slice_91[0][0
__________________________________________________________________________________________________
b11conv3groupconc (Concatenate) (None, 8, 8, 96)     0           b11conv3g0[0][0]                 
                                                                 b11conv3g1[0][0]                 
                                                                 b11conv3g2[0][0]                 
                                                                 b11conv3g3[0][0]                 
__________________________________________________________________________________________________
b11bn3 (BatchNormalization)     (None, 8, 8, 96)     384         b11conv3groupconc[0][0]          
__________________________________________________________________________________________________
b11shuff1resh1 (Reshape)        (None, 8, 8, 4, 24)  0           b11bn3[0][0]                     
__________________________________________________________________________________________________
b11shuff1perm1 (Permute)        (None, 8, 8, 24, 4)  0           b11shuff1resh1[0][0]             
__________________________________________________________________________________________________
b11shuff1resh2 (Reshape)        (None, 8, 8, 96)     0           b11shuff1perm1[0][0]             
__________________________________________________________________________________________________
tf_op_layer_b11add1 (TensorFlow (None, 8, 8, 96)     0           b11shuff1resh2[0][0]             
                                                                 tf_op_layer_b10add1[0][0]        
__________________________________________________________________________________________________
tf_op_layer_strided_slice_92 (T (None, 8, 8, 24)     0           tf_op_layer_b11add1[0][0]        
__________________________________________________________________________________________________
tf_op_layer_strided_slice_93 (T (None, 8, 8, 24)     0           tf_op_layer_b11add1[0][0]        
__________________________________________________________________________________________________
tf_op_layer_strided_slice_94 (T (None, 8, 8, 24)     0           tf_op_layer_b11add1[0][0]        
__________________________________________________________________________________________________
tf_op_layer_strided_slice_95 (T (None, 8, 8, 24)     0           tf_op_layer_b11add1[0][0]        
__________________________________________________________________________________________________
b12conv1g0 (Conv2D)             (None, 8, 8, 864)    20736       tf_op_layer_strided_slice_92[0][0
__________________________________________________________________________________________________
b12conv1g1 (Conv2D)             (None, 8, 8, 864)    20736       tf_op_layer_strided_slice_93[0][0
__________________________________________________________________________________________________
b12conv1g2 (Conv2D)             (None, 8, 8, 864)    20736       tf_op_layer_strided_slice_94[0][0
__________________________________________________________________________________________________
b12conv1g3 (Conv2D)             (None, 8, 8, 864)    20736       tf_op_layer_strided_slice_95[0][0
__________________________________________________________________________________________________
b12conv1groupconc (Concatenate) (None, 8, 8, 3456)   0           b12conv1g0[0][0]                 
                                                                 b12conv1g1[0][0]                 
                                                                 b12conv1g2[0][0]                 
                                                                 b12conv1g3[0][0]                 
__________________________________________________________________________________________________
b12bn1 (BatchNormalization)     (None, 8, 8, 3456)   13824       b12conv1groupconc[0][0]          
__________________________________________________________________________________________________
b12rl1 (ReLU)                   (None, 8, 8, 3456)   0           b12bn1[0][0]                     
__________________________________________________________________________________________________
b12conv2 (DepthwiseConv2D)      (None, 8, 8, 3456)   31104       b12rl1[0][0]                     
__________________________________________________________________________________________________
b12bn2 (BatchNormalization)     (None, 8, 8, 3456)   13824       b12conv2[0][0]                   
__________________________________________________________________________________________________
b12rl2 (ReLU)                   (None, 8, 8, 3456)   0           b12bn2[0][0]                     
__________________________________________________________________________________________________
tf_op_layer_strided_slice_96 (T (None, 8, 8, 864)    0           b12rl2[0][0]                     
__________________________________________________________________________________________________
tf_op_layer_strided_slice_97 (T (None, 8, 8, 864)    0           b12rl2[0][0]                     
__________________________________________________________________________________________________
tf_op_layer_strided_slice_98 (T (None, 8, 8, 864)    0           b12rl2[0][0]                     
__________________________________________________________________________________________________
tf_op_layer_strided_slice_99 (T (None, 8, 8, 864)    0           b12rl2[0][0]                     
__________________________________________________________________________________________________
b12conv3g0 (Conv2D)             (None, 8, 8, 24)     20736       tf_op_layer_strided_slice_96[0][0
__________________________________________________________________________________________________
b12conv3g1 (Conv2D)             (None, 8, 8, 24)     20736       tf_op_layer_strided_slice_97[0][0
__________________________________________________________________________________________________
b12conv3g2 (Conv2D)             (None, 8, 8, 24)     20736       tf_op_layer_strided_slice_98[0][0
__________________________________________________________________________________________________
b12conv3g3 (Conv2D)             (None, 8, 8, 24)     20736       tf_op_layer_strided_slice_99[0][0
__________________________________________________________________________________________________
b12conv3groupconc (Concatenate) (None, 8, 8, 96)     0           b12conv3g0[0][0]                 
                                                                 b12conv3g1[0][0]                 
                                                                 b12conv3g2[0][0]                 
                                                                 b12conv3g3[0][0]                 
__________________________________________________________________________________________________
b12bn3 (BatchNormalization)     (None, 8, 8, 96)     384         b12conv3groupconc[0][0]          
__________________________________________________________________________________________________
b12shuff1resh1 (Reshape)        (None, 8, 8, 4, 24)  0           b12bn3[0][0]                     
__________________________________________________________________________________________________
b12shuff1perm1 (Permute)        (None, 8, 8, 24, 4)  0           b12shuff1resh1[0][0]             
__________________________________________________________________________________________________
b12shuff1resh2 (Reshape)        (None, 8, 8, 96)     0           b12shuff1perm1[0][0]             
__________________________________________________________________________________________________
tf_op_layer_b12add1 (TensorFlow (None, 8, 8, 96)     0           b12shuff1resh2[0][0]             
                                                                 tf_op_layer_b11add1[0][0]        
__________________________________________________________________________________________________
tf_op_layer_strided_slice_100 ( (None, 8, 8, 24)     0           tf_op_layer_b12add1[0][0]        
__________________________________________________________________________________________________
tf_op_layer_strided_slice_101 ( (None, 8, 8, 24)     0           tf_op_layer_b12add1[0][0]        
__________________________________________________________________________________________________
tf_op_layer_strided_slice_102 ( (None, 8, 8, 24)     0           tf_op_layer_b12add1[0][0]        
__________________________________________________________________________________________________
tf_op_layer_strided_slice_103 ( (None, 8, 8, 24)     0           tf_op_layer_b12add1[0][0]        
__________________________________________________________________________________________________
b13conv1g0 (Conv2D)             (None, 8, 8, 864)    20736       tf_op_layer_strided_slice_100[0][
__________________________________________________________________________________________________
b13conv1g1 (Conv2D)             (None, 8, 8, 864)    20736       tf_op_layer_strided_slice_101[0][
__________________________________________________________________________________________________
b13conv1g2 (Conv2D)             (None, 8, 8, 864)    20736       tf_op_layer_strided_slice_102[0][
__________________________________________________________________________________________________
b13conv1g3 (Conv2D)             (None, 8, 8, 864)    20736       tf_op_layer_strided_slice_103[0][
__________________________________________________________________________________________________
b13conv1groupconc (Concatenate) (None, 8, 8, 3456)   0           b13conv1g0[0][0]                 
                                                                 b13conv1g1[0][0]                 
                                                                 b13conv1g2[0][0]                 
                                                                 b13conv1g3[0][0]                 
__________________________________________________________________________________________________
b13bn1 (BatchNormalization)     (None, 8, 8, 3456)   13824       b13conv1groupconc[0][0]          
__________________________________________________________________________________________________
b13rl1 (ReLU)                   (None, 8, 8, 3456)   0           b13bn1[0][0]                     
__________________________________________________________________________________________________
b13conv2 (DepthwiseConv2D)      (None, 8, 8, 3456)   31104       b13rl1[0][0]                     
__________________________________________________________________________________________________
b13bn2 (BatchNormalization)     (None, 8, 8, 3456)   13824       b13conv2[0][0]                   
__________________________________________________________________________________________________
b13rl2 (ReLU)                   (None, 8, 8, 3456)   0           b13bn2[0][0]                     
__________________________________________________________________________________________________
tf_op_layer_strided_slice_104 ( (None, 8, 8, 864)    0           b13rl2[0][0]                     
__________________________________________________________________________________________________
tf_op_layer_strided_slice_105 ( (None, 8, 8, 864)    0           b13rl2[0][0]                     
__________________________________________________________________________________________________
tf_op_layer_strided_slice_106 ( (None, 8, 8, 864)    0           b13rl2[0][0]                     
__________________________________________________________________________________________________
tf_op_layer_strided_slice_107 ( (None, 8, 8, 864)    0           b13rl2[0][0]                     
__________________________________________________________________________________________________
b13conv3g0 (Conv2D)             (None, 8, 8, 24)     20736       tf_op_layer_strided_slice_104[0][
__________________________________________________________________________________________________
b13conv3g1 (Conv2D)             (None, 8, 8, 24)     20736       tf_op_layer_strided_slice_105[0][
__________________________________________________________________________________________________
b13conv3g2 (Conv2D)             (None, 8, 8, 24)     20736       tf_op_layer_strided_slice_106[0][
__________________________________________________________________________________________________
b13conv3g3 (Conv2D)             (None, 8, 8, 24)     20736       tf_op_layer_strided_slice_107[0][
__________________________________________________________________________________________________
b13conv3groupconc (Concatenate) (None, 8, 8, 96)     0           b13conv3g0[0][0]                 
                                                                 b13conv3g1[0][0]                 
                                                                 b13conv3g2[0][0]                 
                                                                 b13conv3g3[0][0]                 
__________________________________________________________________________________________________
b13bn3 (BatchNormalization)     (None, 8, 8, 96)     384         b13conv3groupconc[0][0]          
__________________________________________________________________________________________________
b13shuff1resh1 (Reshape)        (None, 8, 8, 4, 24)  0           b13bn3[0][0]                     
__________________________________________________________________________________________________
b13shuff1perm1 (Permute)        (None, 8, 8, 24, 4)  0           b13shuff1resh1[0][0]             
__________________________________________________________________________________________________
b13shuff1resh2 (Reshape)        (None, 8, 8, 96)     0           b13shuff1perm1[0][0]             
__________________________________________________________________________________________________
tf_op_layer_b13add1 (TensorFlow (None, 8, 8, 96)     0           b13shuff1resh2[0][0]             
                                                                 tf_op_layer_b12add1[0][0]        
__________________________________________________________________________________________________
tf_op_layer_strided_slice_108 ( (None, 8, 8, 24)     0           tf_op_layer_b13add1[0][0]        
__________________________________________________________________________________________________
tf_op_layer_strided_slice_109 ( (None, 8, 8, 24)     0           tf_op_layer_b13add1[0][0]        
__________________________________________________________________________________________________
tf_op_layer_strided_slice_110 ( (None, 8, 8, 24)     0           tf_op_layer_b13add1[0][0]        
__________________________________________________________________________________________________
tf_op_layer_strided_slice_111 ( (None, 8, 8, 24)     0           tf_op_layer_b13add1[0][0]        
__________________________________________________________________________________________________
b14conv1g0 (Conv2D)             (None, 8, 8, 864)    20736       tf_op_layer_strided_slice_108[0][
__________________________________________________________________________________________________
b14conv1g1 (Conv2D)             (None, 8, 8, 864)    20736       tf_op_layer_strided_slice_109[0][
__________________________________________________________________________________________________
b14conv1g2 (Conv2D)             (None, 8, 8, 864)    20736       tf_op_layer_strided_slice_110[0][
__________________________________________________________________________________________________
b14conv1g3 (Conv2D)             (None, 8, 8, 864)    20736       tf_op_layer_strided_slice_111[0][
__________________________________________________________________________________________________
b14conv1groupconc (Concatenate) (None, 8, 8, 3456)   0           b14conv1g0[0][0]                 
                                                                 b14conv1g1[0][0]                 
                                                                 b14conv1g2[0][0]                 
                                                                 b14conv1g3[0][0]                 
__________________________________________________________________________________________________
b14bn1 (BatchNormalization)     (None, 8, 8, 3456)   13824       b14conv1groupconc[0][0]          
__________________________________________________________________________________________________
b14rl1 (ReLU)                   (None, 8, 8, 3456)   0           b14bn1[0][0]                     
__________________________________________________________________________________________________
b14conv2 (DepthwiseConv2D)      (None, 8, 8, 3456)   31104       b14rl1[0][0]                     
__________________________________________________________________________________________________
b14bn2 (BatchNormalization)     (None, 8, 8, 3456)   13824       b14conv2[0][0]                   
__________________________________________________________________________________________________
b14rl2 (ReLU)                   (None, 8, 8, 3456)   0           b14bn2[0][0]                     
__________________________________________________________________________________________________
tf_op_layer_strided_slice_112 ( (None, 8, 8, 864)    0           b14rl2[0][0]                     
__________________________________________________________________________________________________
tf_op_layer_strided_slice_113 ( (None, 8, 8, 864)    0           b14rl2[0][0]                     
__________________________________________________________________________________________________
tf_op_layer_strided_slice_114 ( (None, 8, 8, 864)    0           b14rl2[0][0]                     
__________________________________________________________________________________________________
tf_op_layer_strided_slice_115 ( (None, 8, 8, 864)    0           b14rl2[0][0]                     
__________________________________________________________________________________________________
b14conv3g0 (Conv2D)             (None, 8, 8, 24)     20736       tf_op_layer_strided_slice_112[0][
__________________________________________________________________________________________________
b14conv3g1 (Conv2D)             (None, 8, 8, 24)     20736       tf_op_layer_strided_slice_113[0][
__________________________________________________________________________________________________
b14conv3g2 (Conv2D)             (None, 8, 8, 24)     20736       tf_op_layer_strided_slice_114[0][
__________________________________________________________________________________________________
b14conv3g3 (Conv2D)             (None, 8, 8, 24)     20736       tf_op_layer_strided_slice_115[0][
__________________________________________________________________________________________________
b14conv3groupconc (Concatenate) (None, 8, 8, 96)     0           b14conv3g0[0][0]                 
                                                                 b14conv3g1[0][0]                 
                                                                 b14conv3g2[0][0]                 
                                                                 b14conv3g3[0][0]                 
__________________________________________________________________________________________________
b14bn3 (BatchNormalization)     (None, 8, 8, 96)     384         b14conv3groupconc[0][0]          
__________________________________________________________________________________________________
b14shuff1resh1 (Reshape)        (None, 8, 8, 4, 24)  0           b14bn3[0][0]                     
__________________________________________________________________________________________________
b14shuff1perm1 (Permute)        (None, 8, 8, 24, 4)  0           b14shuff1resh1[0][0]             
__________________________________________________________________________________________________
b14shuff1resh2 (Reshape)        (None, 8, 8, 96)     0           b14shuff1perm1[0][0]             
__________________________________________________________________________________________________
tf_op_layer_b14add1 (TensorFlow (None, 8, 8, 96)     0           b14shuff1resh2[0][0]             
                                                                 tf_op_layer_b13add1[0][0]        
__________________________________________________________________________________________________
tf_op_layer_strided_slice_116 ( (None, 8, 8, 24)     0           tf_op_layer_b14add1[0][0]        
__________________________________________________________________________________________________
tf_op_layer_strided_slice_117 ( (None, 8, 8, 24)     0           tf_op_layer_b14add1[0][0]        
__________________________________________________________________________________________________
tf_op_layer_strided_slice_118 ( (None, 8, 8, 24)     0           tf_op_layer_b14add1[0][0]        
__________________________________________________________________________________________________
tf_op_layer_strided_slice_119 ( (None, 8, 8, 24)     0           tf_op_layer_b14add1[0][0]        
__________________________________________________________________________________________________
b15conv1g0 (Conv2D)             (None, 8, 8, 864)    20736       tf_op_layer_strided_slice_116[0][
__________________________________________________________________________________________________
b15conv1g1 (Conv2D)             (None, 8, 8, 864)    20736       tf_op_layer_strided_slice_117[0][
__________________________________________________________________________________________________
b15conv1g2 (Conv2D)             (None, 8, 8, 864)    20736       tf_op_layer_strided_slice_118[0][
__________________________________________________________________________________________________
b15conv1g3 (Conv2D)             (None, 8, 8, 864)    20736       tf_op_layer_strided_slice_119[0][
__________________________________________________________________________________________________
b15conv1groupconc (Concatenate) (None, 8, 8, 3456)   0           b15conv1g0[0][0]                 
                                                                 b15conv1g1[0][0]                 
                                                                 b15conv1g2[0][0]                 
                                                                 b15conv1g3[0][0]                 
__________________________________________________________________________________________________
b15bn1 (BatchNormalization)     (None, 8, 8, 3456)   13824       b15conv1groupconc[0][0]          
__________________________________________________________________________________________________
b15rl1 (ReLU)                   (None, 8, 8, 3456)   0           b15bn1[0][0]                     
__________________________________________________________________________________________________
b15conv2 (DepthwiseConv2D)      (None, 8, 8, 3456)   31104       b15rl1[0][0]                     
__________________________________________________________________________________________________
b15bn2 (BatchNormalization)     (None, 8, 8, 3456)   13824       b15conv2[0][0]                   
__________________________________________________________________________________________________
b15rl2 (ReLU)                   (None, 8, 8, 3456)   0           b15bn2[0][0]                     
__________________________________________________________________________________________________
tf_op_layer_strided_slice_120 ( (None, 8, 8, 864)    0           b15rl2[0][0]                     
__________________________________________________________________________________________________
tf_op_layer_strided_slice_121 ( (None, 8, 8, 864)    0           b15rl2[0][0]                     
__________________________________________________________________________________________________
tf_op_layer_strided_slice_122 ( (None, 8, 8, 864)    0           b15rl2[0][0]                     
__________________________________________________________________________________________________
tf_op_layer_strided_slice_123 ( (None, 8, 8, 864)    0           b15rl2[0][0]                     
__________________________________________________________________________________________________
b15conv3g0 (Conv2D)             (None, 8, 8, 24)     20736       tf_op_layer_strided_slice_120[0][
__________________________________________________________________________________________________
b15conv3g1 (Conv2D)             (None, 8, 8, 24)     20736       tf_op_layer_strided_slice_121[0][
__________________________________________________________________________________________________
b15conv3g2 (Conv2D)             (None, 8, 8, 24)     20736       tf_op_layer_strided_slice_122[0][
__________________________________________________________________________________________________
b15conv3g3 (Conv2D)             (None, 8, 8, 24)     20736       tf_op_layer_strided_slice_123[0][
__________________________________________________________________________________________________
b15conv3groupconc (Concatenate) (None, 8, 8, 96)     0           b15conv3g0[0][0]                 
                                                                 b15conv3g1[0][0]                 
                                                                 b15conv3g2[0][0]                 
                                                                 b15conv3g3[0][0]                 
__________________________________________________________________________________________________
b15bn3 (BatchNormalization)     (None, 8, 8, 96)     384         b15conv3groupconc[0][0]          
__________________________________________________________________________________________________
b15shuff1resh1 (Reshape)        (None, 8, 8, 4, 24)  0           b15bn3[0][0]                     
__________________________________________________________________________________________________
b15shuff1perm1 (Permute)        (None, 8, 8, 24, 4)  0           b15shuff1resh1[0][0]             
__________________________________________________________________________________________________
b15shuff1resh2 (Reshape)        (None, 8, 8, 96)     0           b15shuff1perm1[0][0]             
__________________________________________________________________________________________________
tf_op_layer_b15add1 (TensorFlow (None, 8, 8, 96)     0           b15shuff1resh2[0][0]             
                                                                 tf_op_layer_b14add1[0][0]        
__________________________________________________________________________________________________
tf_op_layer_strided_slice_124 ( (None, 8, 8, 24)     0           tf_op_layer_b15add1[0][0]        
__________________________________________________________________________________________________
tf_op_layer_strided_slice_125 ( (None, 8, 8, 24)     0           tf_op_layer_b15add1[0][0]        
__________________________________________________________________________________________________
tf_op_layer_strided_slice_126 ( (None, 8, 8, 24)     0           tf_op_layer_b15add1[0][0]        
__________________________________________________________________________________________________
tf_op_layer_strided_slice_127 ( (None, 8, 8, 24)     0           tf_op_layer_b15add1[0][0]        
__________________________________________________________________________________________________
b16conv1g0 (Conv2D)             (None, 8, 8, 864)    20736       tf_op_layer_strided_slice_124[0][
__________________________________________________________________________________________________
b16conv1g1 (Conv2D)             (None, 8, 8, 864)    20736       tf_op_layer_strided_slice_125[0][
__________________________________________________________________________________________________
b16conv1g2 (Conv2D)             (None, 8, 8, 864)    20736       tf_op_layer_strided_slice_126[0][
__________________________________________________________________________________________________
b16conv1g3 (Conv2D)             (None, 8, 8, 864)    20736       tf_op_layer_strided_slice_127[0][
__________________________________________________________________________________________________
b16conv1groupconc (Concatenate) (None, 8, 8, 3456)   0           b16conv1g0[0][0]                 
                                                                 b16conv1g1[0][0]                 
                                                                 b16conv1g2[0][0]                 
                                                                 b16conv1g3[0][0]                 
__________________________________________________________________________________________________
b16bn1 (BatchNormalization)     (None, 8, 8, 3456)   13824       b16conv1groupconc[0][0]          
__________________________________________________________________________________________________
b16rl1 (ReLU)                   (None, 8, 8, 3456)   0           b16bn1[0][0]                     
__________________________________________________________________________________________________
b16conv2 (DepthwiseConv2D)      (None, 8, 8, 3456)   31104       b16rl1[0][0]                     
__________________________________________________________________________________________________
b16bn2 (BatchNormalization)     (None, 8, 8, 3456)   13824       b16conv2[0][0]                   
__________________________________________________________________________________________________
b16rl2 (ReLU)                   (None, 8, 8, 3456)   0           b16bn2[0][0]                     
__________________________________________________________________________________________________
tf_op_layer_strided_slice_128 ( (None, 8, 8, 864)    0           b16rl2[0][0]                     
__________________________________________________________________________________________________
tf_op_layer_strided_slice_129 ( (None, 8, 8, 864)    0           b16rl2[0][0]                     
__________________________________________________________________________________________________
tf_op_layer_strided_slice_130 ( (None, 8, 8, 864)    0           b16rl2[0][0]                     
__________________________________________________________________________________________________
tf_op_layer_strided_slice_131 ( (None, 8, 8, 864)    0           b16rl2[0][0]                     
__________________________________________________________________________________________________
b16conv3g0 (Conv2D)             (None, 8, 8, 40)     34560       tf_op_layer_strided_slice_128[0][
__________________________________________________________________________________________________
b16conv3g1 (Conv2D)             (None, 8, 8, 40)     34560       tf_op_layer_strided_slice_129[0][
__________________________________________________________________________________________________
b16conv3g2 (Conv2D)             (None, 8, 8, 40)     34560       tf_op_layer_strided_slice_130[0][
__________________________________________________________________________________________________
b16conv3g3 (Conv2D)             (None, 8, 8, 40)     34560       tf_op_layer_strided_slice_131[0][
__________________________________________________________________________________________________
b16conv3groupconc (Concatenate) (None, 8, 8, 160)    0           b16conv3g0[0][0]                 
                                                                 b16conv3g1[0][0]                 
                                                                 b16conv3g2[0][0]                 
                                                                 b16conv3g3[0][0]                 
__________________________________________________________________________________________________
b16bn3 (BatchNormalization)     (None, 8, 8, 160)    640         b16conv3groupconc[0][0]          
__________________________________________________________________________________________________
b16shuff1resh1 (Reshape)        (None, 8, 8, 4, 40)  0           b16bn3[0][0]                     
__________________________________________________________________________________________________
b16shuff1perm1 (Permute)        (None, 8, 8, 40, 4)  0           b16shuff1resh1[0][0]             
__________________________________________________________________________________________________
b16shuff1resh2 (Reshape)        (None, 8, 8, 160)    0           b16shuff1perm1[0][0]             
__________________________________________________________________________________________________
conv4 (Conv2D)                  (None, 8, 8, 1280)   204800      b16shuff1resh2[0][0]             
__________________________________________________________________________________________________
bn4 (BatchNormalization)        (None, 8, 8, 1280)   5120        conv4[0][0]                      
__________________________________________________________________________________________________
rl3 (ReLU)                      (None, 8, 8, 1280)   0           bn4[0][0]                        
__________________________________________________________________________________________________
ave_pool (GlobalAveragePooling2 (None, 1280)         0           rl3[0][0]                        
__________________________________________________________________________________________________
dense1 (Dense)                  (None, 100)          128100      ave_pool[0][0]                   
==================================================================================================
Total params: 3,011,940
Trainable params: 2,820,260
Non-trainable params: 191,680
__________________________________________________________________________________________________
conv_0 : 1.0
conv_1 : 1.0
conv_2 : 1.0
conv_3 : 1.0
conv_4 : 1.0
dwise_0 : 1.0
conv_5 : 0.19995777027027026
…
